biases0.npy (npy, 2176 bytes, 1 tensors)

array f8 [256]
-0.5996307434336983 1.4530496213615933 -1.1785253061122543 -0.0020473926867588415 -1.2002994980303419 -0.3826308277360917 -1.2445330074286653 1.4755377463162693
-1.7755181112648475 -0.14059989749097712 -0.5665988029764185 -1.4895414056433565 -1.0431020863612077 -0.40232466116806975 -1.9426935787166184 -0.25955702485825105
-0.2555597497981826 -1.0151860469691154 0.476890109679244 0.3257690788436315 1.1166972566206044 -0.8021507791317721 -0.6251253501764837 0.8627679315735627
0.030616146409949824 -0.031458157741196466 0.2991347302902934 0.41676481082003153 -0.5153772843142942 0.4290879956267983 -0.946418144660874 -0.6875439496294142
-0.538968932247581 0.9433698465593735 -1.0171877635356255 -2.0069190911242414 -1.4154643150690092 -0.5465319785425486 0.051005208645624814 -1.310670471404388
-1.8885395155248328 -0.8240779308148034 1.148180209967747 0.7690365990223867 -0.86317504940669 -0.8460565196491792 -0.46174375536008916 -1.7087145280805807
-1.9319923615368368 -0.7713473297003621 -1.993992879729351 0.29848911940199657 -0.10973519293491654 0.1004922074865997 -0.3575178814383837 -0.9469807135236192
-0.2484045501183102 0.8018235804203903 -0.8840273098666799 -1.6324795512700245 -1.3167838470310014 0.14907212536787323 0.4673989831651906 -1.0129729464480983
-1.250137626986095 -0.31313098564573705 0.9172341150023121 -0.6172046825087912 -1.2542185487888347 0.1693736234320833 0.22548062535208513 -1.0590367943724557
-0.05159136300646458 -1.9939933876973939 0.6625067617932179 -0.29532208349736555 -0.6947135139089939 -0.7993127235232388 -1.0604689853296307 -1.7329613507384594
-0.2965877056149781 -0.6994441408220083 -0.6721839174450445 -0.9471641469880385 -0.12160381678935785 -1.5909616387428598 0.8245940610220365 -1.6357487931432968
-1.8875976366136256 -1.7706784757996012 -1.4189190987649067 -0.08695174311655778 0.2191363440397292 -0.42338162522004114 -1.0356095694674727 -0.46773913206916934
-1.651275828186955 0.30541192917147986 0.2552310701603167 1.066875213285964 -1.2190643317250813 -0.604032659769351 -1.4819224422465382 -1.6375518890989733
-0.9694501409078774 -0.92391144079983 -0.8090654012651585 -0.8926571944877528 -1.5187088139872762 1.0956330895301145 -0.1526752719751342 -0.09276442771503846
0.21954982037810855 0.006555283150473836 -0.05743264919452576 -1.3096177969522778 -0.4587061605798739 -1.2694849914119344 -2.062656448998755 -0.2336339004685996
0.17258444600457584 -1.12931405418385 -1.5236374948791547 0.5987420199675807 -0.4591735943671127 -0.2641220758684387 -0.5496214620000428 0.18975639855879353
-0.041722821728915616 0.24467839047785195 -0.8713040650014848 -0.5823359257430113 -0.45007753315169585 0.6894157341799182 -0.0775645174281259 -1.1268903000408963
-0.25619839889437585 -0.8994014507283342 -0.45359077121038516 1.1549198051765515 1.3429139466342084 -0.24528555574544064 -2.0464684575274323 -1.1155107666511157
-1.1850268914414894 -0.9591412903950371 -0.26701033795451184 -1.322820036123872 -1.129101370281678 -0.2532153080518886 1.5499963779764967 -1.5237876218408473
-0.8238535243753532 0.4795415813658211 2.1249643073331885 -0.1961669218875711 -0.4056080964039715 -0.897439258999991 -0.5785958621439442 -2.610289492282031
-1.8107786356790647 -0.7764192825823223 0.0203610894278865 0.24934974501899004 -1.8238142277701446 1.5369586896532381 0.4785918311162181 -0.7058268699722215
-0.9470383748782867 0.009113093526498016 -0.21441577849091903 -0.7837967866949863 -0.06878053976859454 -1.5194756898089856 1.0390659638153317 -0.11227033873614399
-0.006585303329589629 -0.9862421555111164 -1.125231127456848 -2.2534523800983868 -1.1799387208161254 0.3094544804178469 0.11515314207075907 -0.4925065169531021
-0.05532934295304882 -0.4548358435902044 -1.7649545825644755 0.17076710356356897 -0.8446444730662321 -0.018560694747172455 0.5611922155468511 -1.6036491459711095
-0.4465923936124022 -0.7670109355146402 0.6328403084410295 -0.10418778242355553 -2.182549127116144 -1.3280478849868305 -0.6234609310399151 -0.24773284095793355
-1.2757746409530284 -0.18988552452726742 -0.44601269236446456 -0.7754784003038763 -0.34983132046007687 -0.25745254085431385 0.32253559859578473 -0.2820979133921199
-0.6043837699942803 -1.4192928521201411 -0.23499678199294258 -0.26722372525044374 -0.7778834215791928 -2.271770159400113 -0.05471114357319236 -0.8886550355955998
0.4697719672349117 -0.4535725181159399 -2.564101187718343 -0.16215978827469987 -1.292097042564621 -0.30482370709851114 -0.009233609201212477 -0.838503595701169
-0.41580436962230055 -2.417338799249894 0.025518868964576873 -1.0729202195937653 -0.7634729115374801 0.3108162030545023 -0.6005703714148202 -1.9842258191456477
-0.3191563082053926 -0.8394542588134767 -1.5406137020458972 -0.593889077941623 -0.7394427654664253 -0.6032756323958002 0.4079434221220214 -0.06102750292201762
-0.30484967800091173 -0.4826776756940037 1.7974189753485708 -1.2305150539853615 -0.6037655772418486 -0.8246040843421131 -0.4110113107765652 -0.22219074037925926
-0.26821589938048335 1.5929798187114355 -0.8279627679809802 0.45676500516076274 0.16336391636641662 -0.1664908134540586 0.499548382581361 -0.9009310123174451
00000000: 322a 17d0 2c30 e3bf 6069 b3f5 b03f f73f
00000010: 182b f459 3ddb f2bf 65e0 3694 b1c5 60bf
00000020: e920 173f 6d34 f3bf dc58 e402 067d d8bf
00000030: a42d 5b71 9be9 f3bf 1c12 c777 cd9b f73f
00000040: 4e69 d5ad 8568 fcbf b4b8 c56c 2dff c1bf
00000050: 1f91 17d0 9321 e2bf d96a 745e 29d5 f7bf
00000060: daf8 34d0 8bb0 f0bf 40d5 85ef afbf d9bf
00000070: 12cb abdc 4515 ffbf d8a5 4d11 959c d0bf
00000080: 21a8 e347 175b d0bf eb67 71b9 333e f0bf
00000090: d9ec 3618 5e85 de3f c29c eb8c 66d9 d43f
000000a0: a17e 4bf1 fddd f13f c49e 5a1c 38ab e9bf
000000b0: ce12 dde0 0601 e4bf 2dac 447e cb9b eb3f
000000c0: a5ba 3dce d659 9f3f d6b6 619d 481b a0bf
000000d0: 2d74 ecfe 0525 d33f 551f 2650 46ac da3f
000000e0: e365 a780 f87d e0bf c7b0 147f 2d76 db3f
000000f0: 391a 75b4 0e49 eebf 7a12 472b 5c00 e6bf
00000100: 6007 32c6 3b3f e1bf 5929 e0f5 1530 ee3f
00000110: 276e 24ad 6646 f0bf f6c5 b098 2b0e 00c0
00000120: e005 dee8 bda5 f6bf 94de c1a1 307d e1bf
00000130: ca02 1ece 5a1d aa3f 6a3c a899 81f8 f4bf
00000140: 1e20 0636 7537 febf cc8e 46ae d85e eabf
00000150: 3b9d 3b36 f25e f23f 8d4d 47a4 f29b e83f
00000160: ed98 fd47 219f ebbf ecbe 4e1f e512 ebbf
00000170: fcd7 19ae 358d ddbf 10e6 840b e556 fbbf
00000180: a7c2 8ed2 70e9 febf 8470 5d98 e0ae e8bf
00000190: 8f4f ee13 65e7 ffbf 4dc7 821b 721a d33f
000001a0: fa2e e008 9b17 bcbf 1065 a878 dbb9 b93f
000001b0: 08d6 20ae 92e1 d6bf a4da 507f aa4d eebf
000001c0: 2cc6 7765 b8cb cfbf 8526 e2ec 89a8 e93f
000001d0: 73be 14a4 f349 ecbf 057f c1e0 a21e fabf
000001e0: 3263 6ef0 8b11 f5bf 0ea1 999f cb14 c33f
000001f0: 9433 b86c dde9 dd3f 31a3 cb1e 2335 f0bf
00000200: 1e78 f64f 9000 f4bf a69c ad8b 560a d4bf
00000210: dfbb d65b fb59 ed3f bb06 ca08 24c0 e3bf
00000220: a05a 1178 4711 f4bf 8810 b9ee 08ae c53f
00000230: 2869 e293 8cdc cc3f 2c72 d190 d0f1 f0bf
00000240: 3cd7 bce1 2e6a aabf e09b 499c 65e7 ffbf
00000250: c4fb 6861 4133 e53f d818 9a98 8ee6 d2bf
00000260: 0282 cad5 173b e6bf 55e3 d946 f893 e9bf
00000270: ed9b a653 aef7 f0bf 6d75 6aae 35ba fbbf
00000280: b7c4 0000 4bfb d2bf f3b2 c6ad d861 e6bf
00000290: 2d5b cad8 8782 e5bf 503c 682f 2b4f eebf
000002a0: 61d7 2d80 6d21 bfbf 5975 f930 9474 f9bf
000002b0: 5f18 9215 1363 ea3f d259 30ed 062c fabf
000002c0: d932 5494 9933 febf 8aa5 14f4 b254 fcbf
000002d0: 52d7 4d83 e4b3 f6bf 0b0c 042d 7842 b6bf
000002e0: 8a00 82e3 a80c cc3f b108 833e af18 dbbf
000002f0: 5699 0457 db91 f0bf f9f9 d21c 70ef ddbf
00000300: 06d0 eb33 a06b fabf b462 e679 de8b d33f
00000310: bdbe d0b2 b455 d03f ae9e 5fbe eb11 f13f
00000320: 4bab c799 4981 f3bf b69b ed4c 3c54 e3bf
00000330: 6d84 8a4e f4b5 f7bf 04ee 129c 6933 fabf
00000340: 5fa9 494d bc05 efbf 1956 d4b9 ae90 edbf
00000350: 8149 d81f dde3 e9bf f8a5 1bd2 a590 ecbf
00000360: 898e 039d a14c f8bf 1128 ff8f b687 f13f
00000370: fc42 0502 dd8a c3bf c8ab 44d7 68bf b7bf
00000380: 68ee 2e61 351a cc3f 0ff6 f46b b6d9 7a3f
00000390: d4b8 06ec cf67 adbf b0b6 82ca 31f4 f4bf
000003a0: 9c83 8a15 715b ddbf 9908 8e7e cf4f f4bf
000003b0: 48aa 3a06 5280 00c0 66f1 df34 b7e7 cdbf
000003c0: baa7 b143 3f17 c63f fb1f 1a9d ab11 f2bf
000003d0: 0572 b7b5 d160 f8bf 3d0e 5006 e528 e33f
000003e0: d095 bfa4 1963 ddbf ba6b 8047 60e7 d0bf
000003f0: 5809 8fbf 7f96 e1bf 2f25 020b f049 c83f
00000400: c022 a595 b15c a5bf 16f5 911a 9f51 cf3f
00000410: 1bb4 0110 b9e1 ebbf 8d44 8bf3 7ea2 e2bf
00000420: c641 63ff 11ce dcbf 89d1 f495 b10f e63f
00000430: 020f afa9 44db b3bf 37af 8d1f be07 f2bf
00000440: 737d 22f8 8d65 d0bf 034d 1b8d e5c7 ecbf
00000450: ea6c 0796 a107 ddbf 93c6 8b30 8d7a f23f
00000460: ef2d a255 937c f53f 1cce 0d60 8465 cfbf
00000470: d101 cbda 2a5f 00c0 8da3 51d1 21d9 f1bf
00000480: a5f2 f9c1 def5 f2bf 74ad 4f13 49b1 eebf
00000490: a758 4d87 b216 d1bf 4054 9a57 452a f5bf
000004a0: 51a8 3399 cc10 f2bf bb7b bbfa ad34 d0bf
000004b0: 793d 8500 c9cc f83f 66b2 1d21 6f61 f8bf
000004c0: 0d5e fc10 025d eabf e973 422c cfb0 de3f
000004d0: 844e 6949 edff 0040 9334 0869 ff1b c9bf
000004e0: 5910 43a9 7bf5 d9bf 5ba5 7189 d2b7 ecbf
000004f0: 144b 3078 db83 e2bf d68c 1375 dfe1 04c0
00000500: e397 c804 f3f8 fcbf 6d98 5540 6dd8 e8bf
00000510: bf97 d094 89d9 943f 1eae 0f44 b1ea cf3f
00000520: 4809 e4d3 572e fdbf 99d1 b5fe 6197 f83f
00000530: edb8 b1a1 3fa1 de3f 4966 653b 2296 e6bf
00000540: 6818 056c 234e eebf 7928 4bb5 e2a9 823f
00000550: 4eb4 2eea f971 cbbf 4913 b2ff dc14 e9bf
00000560: 7f47 e8f8 999b b1bf 03bf acbd c54f f8bf
00000570: bd93 cfa1 03a0 f03f 97bd 2eb9 bfbd bcbf
00000580: 8a0d f5e6 30f9 7abf d56a 7bb5 4b8f efbf
00000590: d8e4 cd5a f200 f2bf 6eed 9c0a 1207 02c0
000005a0: 8207 936c 07e1 f2bf 67b3 3f2a 1ace d33f
000005b0: c5bd 3923 ad7a bd3f 2e59 d80d 3a85 dfbf
000005c0: a12a fcac 2054 acbf 172f 51cc 071c ddbf
000005d0: d5a2 3004 413d fcbf e1e2 844a b2db c53f
000005e0: c021 92d8 5307 ebbf d977 b823 9301 93bf
000005f0: 6b64 9160 49f5 e13f 9744 c301 8ca8 f9bf
00000600: c249 4d43 f894 dcbf 3ab6 7684 5a8b e8bf
00000610: 6408 8b51 3a40 e43f 30e5 26ee 0cac babf
00000620: 7a04 1751 dc75 01c0 81a5 9823 af3f f5bf
00000630: 00ce a456 64f3 e3bf 7f9d 07b1 b5b5 cfbf
00000640: b359 7fab 9269 f4bf a609 ea3a 2b4e c8bf
00000650: 299a d3d1 788b dcbf cbe7 0114 b8d0 e8bf
00000660: 8b85 1fe8 a263 d6bf cd72 cf38 1a7a d0bf
00000670: 80f0 f059 6ca4 d43f e77e 1268 e40d d2bf
00000680: d179 cba1 1c57 e3bf 54d7 f46b 6cb5 f6bf
00000690: 4f97 a9e2 5f14 cebf d99e 2a8a 311a d1bf
000006a0: 1610 f9c5 6be4 e8bf b137 55d5 952c 02c0
000006b0: 5a4b bf58 1903 acbf d4e1 69af dc6f ecbf
000006c0: 757f f670 be10 de3f 7207 eb06 5507 ddbf
000006d0: 9014 c77b 4783 04c0 07dd aee5 a6c1 c4bf
000006e0: 832c d1f2 6dac f4bf 5026 424b 3b82 d3bf
000006f0: a694 580c 12e9 82bf 7bad 237e 05d5 eabf
00000700: 83f2 43ee 899c dabf a80a 71b9 b556 03c0
00000710: 3bfa 884e 9e21 9a3f 30f5 6564 ae2a f1bf
00000720: 9eee 4dbe 5e6e e8bf 24e7 cba4 69e4 d33f
00000730: 118b 055b df37 e3bf f8bf 9192 63bf ffbf
00000740: f578 8394 0e6d d4bf 0bf0 822d cfdc eabf
00000750: e7e7 a08d 5aa6 f8bf 6abf e6aa 2301 e3bf
00000760: a425 dedf 83a9 e7bf 44a3 f3b2 084e e3bf
00000770: 5279 28ba be1b da3f cdc8 6932 ff3e afbf
00000780: 6771 4d39 a882 d3bf d15c e7e7 30e4 debf
00000790: a24f 4566 3ac2 fc3f 14a5 a18d 30b0 f3bf
000007a0: a489 1630 0c52 e3bf 83b7 cc1a 2863 eabf
000007b0: 7992 8462 024e dabf b593 b305 bf70 ccbf
000007c0: 4dcf 0605 732a d1bf a5db 0868 d87c f93f
000007d0: 1616 59c6 ab7e eabf 17db c749 a33b dd3f
000007e0: 56f3 11db 1be9 c43f a94f 6f2b 924f c5bf
000007f0: 9d39 7dc7 99f8 df3f 1361 3b46 6dd4 ecbf
