biases0.npy (npy, 1728 bytes, 1 tensors)

array f8 [200]
-0.6702677501399807 0.6622550419578742 -0.023275916896072512 -0.7748972011539431 0.30417316683250506 0.3251780016308669 -1.551144059462822 0.5947400532753098
0.10191226594441297 -0.2125726628648268 1.3367370628066881 -0.30764447794004873 -0.1443112356285375 -0.12113194483618138 0.06427761851648178 0.7106899140273676
-0.03693404529378165 -0.5147946952106865 -0.7881396304038153 0.23072891836430692 -1.5242962801612279 -0.5575863049860925 -0.752813604725806 -1.1834817199954066
-0.40737148100997794 -0.8979791435965285 0.4082711943391004 -1.4643020410963445 1.0391594303076022 0.21332938430201354 0.1374168233639468 -0.19435178821338833
-1.2350759002437028 -0.7302130990320231 -1.6196893480888128 0.576405928443953 -1.8366924259571162 -0.6983950017911633 -0.08607983897568197 -0.10425306229374039
0.7264131973815978 -1.0147699274492967 0.1642719667890442 -1.5289477582241748 -1.2418011139212246 0.5464504062796866 -0.8241358044403683 0.5724114951214395
-0.3263572472618135 0.6414975378302603 1.1893280334478193 0.8664312027064636 0.2768123238881497 -0.7169590492480178 -0.54905888095719 -0.8233309679031052
0.01529221707288018 -1.6681891165728238 -0.8579857164049988 0.5110713203978902 -0.08321255727865096 1.355177134482615 0.6162630417403653 -1.2965487974043117
0.008677945120617305 -0.8852126529233726 -0.8902035364581873 -2.1841348887189724 0.24455905268842598 -1.8948481587334973 -0.8081555487189904 -0.2686359073987964
-0.28514489781490315 -0.9563876774417573 0.23975358956595377 -0.8714472054950163 -1.0893412448945738 -1.4747941788464283 0.046428205184946 0.3817462786337235
-0.42616892353351715 1.5232034924138507 -0.2407258268682863 0.10230974248291017 0.3033163146903592 0.5808087589513271 0.18155249198415488 -1.2800535706213878
0.1280416270078041 -0.7045718600855332 -1.7113834998346305 -0.20621656610537356 0.7247418825121075 -0.9784614242333236 -0.8600294429373623 -0.7366642479111087
0.809607653430655 0.7422795575418776 0.13339372121956783 -0.8676440702140175 -0.8115777067777004 -0.3997010058725068 -0.7151907197460858 -0.4154091638982085
-0.32383010781301635 0.32649310219015903 -0.40211227659943616 0.9085382676717428 -0.3385218773939647 0.5841203036714232 0.7699826467157441 0.23648484413913148
-1.3278189669332592 0.4265214787348748 -0.8274001387671447 -0.14587342871795272 0.4460291453061888 -0.7250439082840414 -2.2028973955868 -0.7173139142139843
-0.3250170647197411 0.2893595984929859 -0.5674173218695107 -1.2944525504288624 -1.2773453765754104 0.9563640464106473 -1.467263329393533 0.34451146461015336
-0.31763570849364475 -1.1080231366200766 1.572751608697717 -0.1469838716309363 0.17344066072075853 0.4751004990625546 -1.2292835557948667 -0.3883721653821252
-1.1663813238478236 -1.1862320615730007 -1.542981287751456 0.33803409172137316 -0.22559475071908042 0.3499923130777397 -1.4796802690982833 -0.09247620755805386
0.3382348157161564 -0.007402769529593032 -2.2902739364046516 0.679172626972531 1.2157389857834033 -1.2275935201013233 -0.038737002821942444 0.3350633712220368
0.23112726870257608 -0.24531380225281635 0.5257691061461062 -0.06195050607630089 0.40023280785161214 0.895835625615512 0.14105939109819196 -1.1181026814037724
-0.17331286985041217 -0.5008318364126066 -0.7571514775570364 0.23740096303794214 -0.43949074730308774 0.6715487619890369 0.03352971839045391 -0.3485512019783762
1.2656346907014173 -0.1983041282110098 -0.049916271656620013 0.3968547358995311 0.07740498539126253 0.6751063427356426 -1.1351967745694074 1.0913115324399267
-0.7892531179211246 -0.24711576605968152 -0.5096185005525719 -0.2854001636197476 0.5959458300985748 -0.7829145773675156 -0.41307229290319797 0.6163723588889254
0.12197313417689543 -0.10280161985417367 -0.21953911148720842 0.36006363216247067 -0.7632586291756573 -0.21854843888176162 -0.4336447681650236 -0.027749673219888932
0.041227678717660844 -1.5525312745435063 -0.24616142406090022 -0.6283546551427566 -1.7198708287663291 -1.538969384730796 -0.47889151993792445 -0.6232709613620939
00000000: 5c45 4d5a d572 e5bf e53e 5a7c 3131 e53f
00000010: b384 6957 a4d5 97bf d5fa 1637 f5cb e8bf
00000020: 7672 f7ba 9277 d33f 7b86 9864 b7cf d43f
00000030: a470 ec6e 7cd1 f8bf 440a ce4a 1c08 e33f
00000040: d2e1 4a19 ec16 ba3f a097 83bd 9435 cbbf
00000050: 74b1 0167 4663 f53f 490a e376 72b0 d3bf
00000060: 4b26 bc62 ca78 c2bf 9f80 92cd 8002 bfbf
00000070: 249f 647d 7f74 b03f ed06 4bc6 f8bd e63f
00000080: 02a3 4ae9 04e9 a2bf a8b1 82b9 3279 e0bf
00000090: 5e82 289a 7038 e9bf 12de 4e73 8688 cd3f
000000a0: 934f 0b7f 8463 f8bf a49b 133c bfd7 e1bf
000000b0: a8ff 888e 0c17 e8bf a3b4 2c87 8aef f2bf
000000c0: 3fb3 10d5 5f12 dabf f696 c7c1 3ebc ecbf
000000d0: 8075 e580 1d21 da3f fa98 1ffa c76d f7bf
000000e0: ae04 88a3 65a0 f03f ec2d 6d94 604e cb3f
000000f0: a159 22dd df96 c13f ead6 25f7 84e0 c8bf
00000100: ccfd 79f2 dec2 f3bf d581 6edc e75d e7bf
00000110: 4389 bb60 3fea f9bf b764 7cd8 ea71 e23f
00000120: 59bf e498 1763 fdbf c840 8c79 4059 e6bf
00000130: 1ad9 3e0d 5409 b6bf 2539 0f25 54b0 babf
00000140: 4d60 c4e3 c63e e73f 8ebe 3564 7f3c f0bf
00000150: f017 8122 dd06 c53f 75d8 adec 9176 f8bf
00000160: 36d9 46d8 6ade f3bf e96d fb8f 857c e13f
00000170: cd16 f10c 525f eabf 5fd5 6ce9 3151 e23f
00000180: 3055 f381 09e3 d4bf 7641 2ed8 2587 e43f
00000190: 74fd fdd4 7c07 f33f 7076 fbed cdb9 eb3f
000001a0: e0ad 8e09 4bb7 d13f 7ced a21a 54f1 e6bf
000001b0: 7d43 29ee e391 e1bf 0db1 9d2f ba58 eabf
000001c0: f5d9 b0a1 8651 8f3f 1693 3312 e7b0 fabf
000001d0: 91a0 0c76 9e74 ebbf 0b0a e13d b25a e03f
000001e0: 68da 200c 6b4d b5bf b93c 0e38 ceae f53f
000001f0: 6b44 4045 6db8 e33f 7b50 a8f3 a9be f4bf
00000200: db90 ea13 bec5 813f 0af6 497c a953 ecbf
00000210: fce2 7b20 8c7c ecbf 00ce 68b6 1b79 01c0
00000220: 6667 9e06 b64d cf3f c956 8a4d 4c51 febf
00000230: 2887 7a06 69dc e9bf 8ac8 33a9 5431 d1bf
00000240: 101f af62 d03f d2bf a11c 9d54 ba9a eebf
00000250: 8266 24e1 3eb0 ce3f 7f55 f93f e5e2 ebbf
00000260: 1319 d015 f16d f1bf 17a0 e7c7 c198 f7bf
00000270: 783c c30d 70c5 a73f bb7f 86f1 876e d83f
00000280: 8578 4905 5a46 dbbf a820 11a0 0a5f f83f
00000290: 26d6 d998 1ad0 cebf 5aba 06a6 f830 ba3f
000002a0: b70d fcd4 8869 d33f 3aa4 1d40 fc95 e23f
000002b0: c724 caaf 1c3d c73f 7326 ef73 197b f4bf
000002c0: 1538 4304 ab63 c03f e1f9 1749 da8b e6bf
000002d0: 9942 2baa d361 fbbf bd72 a8ef 4d65 cabf
000002e0: 8eca 6de3 1531 e73f c259 2f55 8e4f efbf
000002f0: 106b 6077 5c85 ebbf 0824 9de6 c092 e7bf
00000300: 4f6e 424f 4ee8 e93f 0137 040f c1c0 e73f
00000310: cc9c 10a3 0b13 c13f ab66 447f bdc3 ebbf
00000320: 9abb 98cf 71f8 e9bf 68a5 1987 b394 d9bf
00000330: dac9 f6a5 d7e2 e6bf 54b2 5951 1096 dabf
00000340: 8017 a1ea a1b9 d4bf 36af 1153 43e5 d43f
00000350: ca23 5421 35bc d9bf 7211 5ad8 be12 ed3f
00000360: 71ce 18aa 57aa d5bf e558 2610 1db1 e23f
00000370: 6b36 c4a5 b2a3 e83f 93e2 c9a7 2245 ce3f
00000380: 27ca df19 bf3e f5bf 5c4d 8dbe 204c db3f
00000390: 73be 16db 0f7a eabf a478 d902 fbab c2bf
000003a0: 53c9 09d4 bd8b dc3f b2ce 4748 8f33 e7bf
000003b0: 3ae9 73ab 889f 01c0 5779 504f 3cf4 e6bf
000003c0: ba3e e75f 14cd d4bf 7fe8 131f de84 d23f
000003d0: 6aa1 135f 4828 e2bf 550d a5e0 13b6 f4bf
000003e0: 3c69 a1b4 0170 f4bf 36ed ccc5 889a ee3f
000003f0: 45d8 e51c e979 f7bf 3a40 66d0 790c d63f
00000400: 5868 01b9 2454 d4bf c1e9 ef77 76ba f1bf
00000410: ca68 4197 fd29 f93f ecdf d814 5ed0 c2bf
00000420: 26d0 cbb6 4d33 c63f 665d 72ec 0b68 de3f
00000430: 8864 da3b 25ab f3bf 2f8c 3fed 16db d8bf
00000440: 2477 8976 7fa9 f2bf 5dc3 5e78 cefa f2bf
00000450: 31b8 9325 0db0 f8bf 5116 38be 59a2 d53f
00000460: b46d 3eee 49e0 ccbf 5a4c a128 4666 d63f
00000470: 8804 c537 c5ac f7bf 00b5 1e4f 85ac b7bf
00000480: 89a5 f7a3 a3a5 d53f d788 78d0 5d52 7ebf
00000490: cee9 3d24 7b52 02c0 07ef a53b c8bb e53f
000004a0: 4097 06b9 aa73 f33f 03de 591a 39a4 f3bf
000004b0: bbd5 8720 56d5 a3bf 2c1d 5fa3 ad71 d53f
000004c0: 914b 250e 9495 cd3f fa74 f752 7166 cfbf
000004d0: 35a1 84bb 19d3 e03f 4b00 230b fab7 afbf
000004e0: 3f92 2011 6a9d d93f c687 5379 afaa ec3f
000004f0: 73bb c7ef 3b0e c23f 8e2f 23a3 bfe3 f1bf
00000500: dce0 fdb9 1d2f c6bf 3102 c67c d006 e0bf
00000510: b337 47bc 953a e8bf 09b8 249e 2763 ce3f
00000520: 5bed a3cc 9d20 dcbf c130 4dd4 537d e53f
00000530: bdb7 dca7 ce2a a13f a6a1 5eb3 a94e d6bf
00000540: 3cee 5329 0a40 f43f 76fe a998 0762 c9bf
00000550: cb5b 9b24 a08e a9bf 83e0 fc67 1166 d93f
00000560: 4a86 cd28 d0d0 b33f 65e5 eb9d 789a e53f
00000570: fccd d417 c429 f2bf eb3b d914 0376 f13f
00000580: a697 37c1 8f41 e9bf 63b2 c64a 7da1 cfbf
00000590: 53ea 2975 cb4e e0bf 7845 410c ff43 d2bf
000005a0: 1dc0 4efd fc11 e33f 515d 2bdf a20d e9bf
000005b0: 3bca 39c5 c66f dabf 0cc3 7286 52b9 e33f
000005c0: 5cc7 479e a139 bf3f 3fdf 3ffb 3451 babf
000005d0: 0de6 038c db19 ccbf 6979 2755 480b d73f
000005e0: 2c60 565c 9d6c e8bf 0a65 cb2e 65f9 cbbf
000005f0: f66a 56fc d5c0 dbbf 3502 d10b 696a 9cbf
00000600: fd8f 9057 cb1b a53f a8e7 a208 2bd7 f8bf
00000610: e76d f0b0 3782 cfbf 7614 c438 7b1b e4bf
00000620: 3255 2e46 9784 fbbf 966c 8f5c 9e9f f8bf
00000630: 7cc4 1d9e 28a6 debf f217 73f1 d5f1 e3bf
