biases1.npy (npy, 1152 bytes, 1 tensors)

array f8 [128]
000000 28 3e 3e 99 2f a1 bb 3f 29 4a 41 a8 62 88 ee bf
       0.10792825213706492 -0.954148605940934
000010 5d ee 20 06 7c 3d e5 bf c1 69 2b c3 74 52 dc 3f
       -0.6637554282855934 0.4425327211335138
000020 b8 a8 36 2a 15 58 e1 bf 5a c0 83 a8 f0 03 d7 bf
       -0.5420022797091155 -0.3596154828692356
000030 af 2e 8c 3f cd 7f f0 bf c6 48 3f 7b 82 83 b4 3f
       -1.0312015993430739 0.08013167866673418
000040 4f b4 93 bd f7 da e4 bf 97 0e dd cd cf f9 ef bf
       -0.6517294600176998 -0.9992445965549049
000050 72 0d 94 40 2c 0e f5 bf cc 60 4d a4 be bb cb 3f
       -1.3159601709929487 0.21666701338359073
000060 81 bb 70 82 47 26 b1 bf 92 64 57 0e 69 be ea bf
       -0.06699034628466728 -0.8357434539895101
000070 75 e0 bc 74 76 3c d8 bf 30 7e 95 38 ae 5a ab bf
       -0.3786903514878824 -0.05342621269914749
000080 ac b3 fc 42 46 1e bb bf 4b fc d6 85 43 c6 e4 bf
       -0.10593070159366275 -0.64920211926063
000090 3c ef 5d 4b a1 c0 e7 bf fc 1b ef 46 72 fb f1 bf
       -0.7422644111643204 -1.1238882799968897
0000a0 fb 7e 5c ac 0b 7d ea bf 64 98 83 85 4f cf e5 bf
       -0.827764355319203 -0.6815564735122845
0000b0 36 fb ce c2 57 7a f4 bf b4 28 b4 7c 6d 2e fa bf
       -1.2798688516338195 -1.6363348838081437
0000c0 ad 3b c2 36 fa 0a f9 bf 04 c9 75 77 4f 10 b2 3f
       -1.5651800288212414 0.07056137720590888
0000d0 c0 31 c8 b5 83 d5 f6 bf 10 5f 1d 94 a9 37 e4 bf
       -1.4271275616512042 -0.631794728552423
0000e0 f8 7a 9c 88 4d b3 c8 bf de 6d bc 0d e5 44 97 3f
       -0.19297188921424158 0.022723750079519316
0000f0 ab ba 2d db 12 46 fc bf 2b 46 24 88 50 f2 01 c0
       -1.7671078263917177 -2.2433176647253013
000100 d8 5b 8e 81 73 8c d4 3f 4a 53 a6 dc dc 8c f2 bf
       0.321072460670107 -1.1593903178338274
000110 b8 bb b5 83 31 c5 ef 3f 41 02 0c 50 2d 9b e2 bf
       0.9928214619120501 -0.5814425052086066
000120 c1 af 5c 93 4d d7 f8 bf ac ae ce de a5 27 dc bf
       -1.5525642162638038 -0.4399199176648192
000130 c7 28 76 e2 a8 ae b2 bf f7 ee 9c 69 dc 43 00 c0
       -0.07297759560438798 -2.033135247327546
000140 d6 e7 8d db 3b b5 00 c0 cf 8b 2b 5d 8d 08 ef bf
       -2.0884930756264835 -0.9697939700821453
000150 07 9d 92 26 3c 56 dc bf 76 d7 88 42 86 59 d3 3f
       -0.4427633644758803 0.30233913896096654
000160 8d ae 63 aa 06 84 e4 bf 32 a0 50 1d 80 2e ce bf
       -0.6411164596479054 -0.23579408103364724
000170 a7 f6 ec 64 1e 7b f7 3f a6 d6 74 38 39 72 f9 bf
       1.4675582830817946 -1.5903866010025154
000180 e7 97 a2 1f 17 de e1 3f 09 fd ec 6f 07 88 e1 3f
       0.5583606355546608 0.5478551088380367
000190 eb f3 85 e1 b6 12 cd bf 89 ec 64 50 35 ab 92 bf
       -0.22713361751439662 -0.018231232673525475
0001a0 ee 86 9d d4 29 a3 df bf 3b a6 e6 b6 1b 65 f1 bf
       -0.4943337036439591 -1.087184633690767
0001b0 41 3d 68 24 12 39 e1 bf 6d 66 58 3c 2e db eb bf
       -0.5382166586950136 -0.8705054453486817
0001c0 fd 37 4f 5e 2c ab 00 c0 4b ae a5 77 f5 03 fd bf
       -2.0835807197499876 -1.8134665178030385
0001d0 fb 89 4c 22 d6 a6 be 3f b2 30 12 89 d6 39 03 c0
       0.11973322236421062 -2.4032412251163686
0001e0 8d 4b dc 3f ec 49 fc bf 77 4e e6 58 6b ff ec bf
       -1.7680475706626766 -0.9061791168519012
0001f0 a8 f7 95 fb 54 7c f3 bf 57 02 40 86 c4 6b e8 bf
       -1.217854483372756 -0.7631552335806856
000200 d5 76 4b 77 5a 6e 70 bf f0 0a 62 2f 14 2e d1 3f
       -0.004011491186899104 0.2684374296879204
000210 47 21 33 76 6b 26 f5 bf da 67 56 15 6a 66 f0 bf
       -1.32187982723015 -1.0250035127160033
000220 43 6e 64 69 93 c3 e7 3f b4 a0 6e 69 ad e6 be bf
       0.7426240023082261 -0.12070735763575408
000230 a9 fa 04 74 d5 fb e7 bf 26 a7 88 c2 75 cf f3 bf
       -0.7494914308552626 -1.2381494139648992
000240 04 14 ae 9b be da da 3f 7b ea 67 1e 12 5f 00 c0
       0.4196011085808211 -2.0464212775671604
000250 a9 53 78 ea 6e 32 c4 3f 08 bb a3 56 cb 0e f0 bf
       0.15778910111171499 -1.0036118873937898
000260 0a 35 89 3b 7b a9 e8 bf a9 06 69 82 08 f4 fb bf
       -0.7706886446773364 -1.7470784277105997
000270 2b 69 3e d0 b5 5e cd bf e6 45 a3 7b f5 0b df bf
       -0.22945282619623106 -0.4851049144172904
000280 f9 6c 6e 50 d8 d8 c9 bf d9 91 69 20 f9 a0 e4 bf
       -0.20193008353530909 -0.6446500428251581
000290 02 43 bc 57 76 15 cd bf 8f 43 5b 0c cd 4c e5 bf
       -0.22721747669177011 -0.6656251183832057
0002a0 12 f3 ee 7e 52 34 d3 bf 0a 49 a7 ad 4d 6f d4 bf
       -0.3000684966644239 -0.31929342230172664
0002b0 6d b5 23 77 98 3e f7 bf 5c f1 3c 50 7a b9 e6 bf
       -1.4527821210752692 -0.71014133140083
0002c0 b4 d5 70 b8 60 8e de bf 59 86 6c 80 30 7a e4 bf
       -0.477440052144938 -0.6399157055167947
0002d0 4e a2 b9 fa 79 18 e4 bf 76 1e 67 6a 88 93 f9 bf
       -0.627987851808095 -1.5985187679633817
0002e0 8f fa 0e 08 a2 9e df bf e0 04 9d 29 75 03 eb bf
       -0.4940571860023874 -0.8441720783959248
0002f0 d8 f7 7e 36 b9 10 f8 bf e8 86 92 6f 2f 1a ef bf
       -1.5040828827618409 -0.9719464472911712
000300 e1 92 3f 1c a4 25 d8 bf f9 e5 cf 76 d4 ea f9 bf
       -0.3772974277365347 -1.6198315278146522
000310 e8 a8 45 ed 09 a8 ad bf 16 fc 2d 20 44 d7 d5 bf
       -0.05792265912426037 -0.3412638010267427
000320 a5 b6 36 b7 a9 4f f7 bf 93 f1 75 04 e2 f0 f5 bf
       -1.4569489628587828 -1.371309297012975
000330 ad 74 50 67 83 6d f3 bf 29 09 a4 ad 64 a9 d9 bf
       -1.2142366443361354 -0.40096394497972426
000340 60 6c de 36 c9 30 f4 bf b3 ad 4d ab 3a 03 70 3f
       -1.2619106429399594 0.003909329582579546
000350 01 14 b7 72 9d 80 d0 bf 25 cc 9d c4 90 5e f5 bf
       -0.25785003855372685 -1.335587280304716
000360 12 8b b6 ad 8f 1f b9 3f 18 47 d0 6c 10 62 d6 3f
       0.09813783637086385 0.3497353613503136
000370 35 55 b5 65 78 e2 ed bf f2 38 bc ef ff c4 cf bf
       -0.9338953005305145 -0.24819945531675774
000380 54 33 35 d6 df 14 e8 bf a8 61 80 d9 c6 20 ef bf
       -0.7525481399294258 -0.9727510688854197
000390 ea 02 e5 6b 73 03 e2 bf af 5c 6e b0 4f 7f db 3f
       -0.5629212481800014 0.42964546422576694
0003a0 b6 c0 f3 31 b4 31 d8 bf 5d c9 b6 f1 8e ea d2 3f
       -0.3780336845220619 0.2955663071144466
0003b0 04 91 36 41 3a 36 f4 bf ad 33 11 25 f6 4d b1 bf
       -1.2632391497982676 -0.06759584813080606
0003c0 7b ed 62 af 56 92 e7 bf a3 b8 7c 4a 8f e5 f9 bf
       -0.7366136003033 -1.618544856038661
0003d0 17 b2 5d 10 43 d1 bc bf 13 eb 82 67 2a f1 fd bf
       -0.11256808423576846 -1.8713783305563012
0003e0 a7 3e e0 d5 ef 4a d5 bf de cf 2a d4 9f 02 ee bf
       -0.33269878279041126 -0.9378203529254241
0003f0 cf c5 0c 1c eb b3 f7 bf 3a 58 bb aa 7b d6 ff bf
       -1.481425389833351 -1.989864031716492
