biases1.npy (npy, 768 bytes, 1 tensors)

array f8 [80]
000000 7b 58 bf 98 2b 83 c5 bf bc 7a ad 89 54 18 e4 bf
       -0.16806549986239702 -0.6279699982659035
000010 81 ae 29 81 57 d8 cb bf b7 f6 2b c6 ee 23 01 c0
       -0.21753972822931547 -2.1425452692190805
000020 c0 34 08 c7 a5 24 a1 3f 48 24 9f 12 d6 72 ef bf
       0.033482723756699695 -0.9827680934623766
000030 bf bf 07 24 cf d8 f4 bf 48 37 ae 60 0c 16 c8 3f
       -1.3029319198067097 0.18817286225060514
000040 06 65 0a fd 33 51 d1 bf 9d 0e 4c 54 da e7 e9 bf
       -0.270581242666211 -0.8095523497035689
000050 3f 78 12 77 7d ea f2 3f 7b 36 67 26 ca d0 a4 bf
       1.182248559117866 -0.0406554386023403
000060 ed 26 4d 36 b4 4c ec bf 22 1c 6c 5e fe b7 ea bf
       -0.8843632755826697 -0.8349601597009306
000070 7b 7b 21 70 70 73 95 3f 6c 7c d0 e3 52 3e dc 3f
       0.020948178142471612 0.4413039421796785
000080 18 f4 10 a2 26 c9 f3 bf 20 57 37 35 81 fb dd 3f
       -1.2366091089927576 0.4684756297768775
000090 da 68 2a 5f 7a b8 ca 3f 8d 4b ae 3b 10 94 e7 bf
       0.20875482222329006 -0.736824146808759
0000a0 91 80 dc 07 0c c6 8c 3f 29 ec 27 e1 08 99 d3 bf
       0.01404961966505905 -0.3062154959476993
0000b0 4a 4d 47 d8 39 dc e6 bf e8 2d 81 c2 f1 58 c4 3f
       -0.7143830513181595 0.1589643668870473
0000c0 e4 34 95 41 3e 0f f4 bf f7 a5 c1 2a 67 67 c9 bf
       -1.2537214814977284 -0.198468109013717
0000d0 24 8a 3e 68 de ef fc bf 4a c7 02 81 85 94 e1 bf
       -1.8085617134135044 -0.5493800658934813
0000e0 3a 04 cf 41 2e 2b bf bf d2 9f a4 e9 31 7f f4 bf
       -0.12175263506561942 -1.2810534598047423
0000f0 b6 18 3b 3d 0d c4 db bf de 6e 01 65 d5 a0 d9 3f
       -0.4338410470921973 0.40044150222614217
000100 66 39 98 ca 2e 9e f0 bf 54 8c 1c 06 82 e1 db 3f
       -1.0386188424923488 0.43563891026332624
000110 a3 74 d5 61 43 68 ed bf 5a cd 08 09 7b e6 c2 bf
       -0.9189774428192731 -0.14765870991832736
000120 e9 f0 cd e4 5a a9 ed bf a4 ce d6 59 67 ad d9 3f
       -0.9269232243382507 0.4012087228140706
000130 68 6b 82 8c 95 2b f8 bf d9 0f 33 1e b0 f2 a7 3f
       -1.5106406677866406 0.046773437200982655
000140 ef de 1a a0 9d 08 f7 bf f7 40 86 d9 a7 67 b7 3f
       -1.4396034483051456 0.09142540989546775
000150 c7 50 27 b2 e0 fa d2 bf 86 46 d2 93 2e d8 f2 bf
       -0.2965623607426661 -1.1777787946961396
000160 19 09 53 1b fe 3f a5 bf 1b 24 58 05 77 61 d2 3f
       -0.041503849826329105 0.2871987869444312
000170 6a 11 b9 5c 66 cc ce 3f 0e 2c 73 a6 f6 9a d7 bf
       0.24061278846250939 -0.3688332200515
000180 16 82 6e 72 6b c7 c4 bf 9a 77 9e 53 84 4d f7 bf
       -0.16233580672725684 -1.4564250246398616
000190 81 5c c2 f1 b4 d7 f0 bf 77 74 92 58 00 eb ca 3f
       -1.0526627963752448 0.21029667210396827
0001a0 dd 64 a2 ec 81 c2 e1 bf 33 a0 50 7a f9 f3 f0 bf
       -0.5549935933842353 -1.059564092438461
0001b0 0e dc 0d 7e 4f c0 f0 bf 19 85 22 4a 11 9b f3 bf
       -1.0469508098592573 -1.2253582855121918
0001c0 4b 1e 34 a7 25 65 e4 bf c9 10 ba 0f 68 81 c1 bf
       -0.6373470559783042 -0.13676167266760889
0001d0 90 90 c5 2f 36 c7 db 3f 95 c4 ff 0a 32 8e a0 bf
       0.4340339151879187 -0.03233486542001988
0001e0 d6 85 f7 dd 5e 38 db bf 2b 7e 4b c2 1d 96 ba bf
       -0.4253155868192072 -0.1038530921318787
0001f0 25 cd 26 42 4d 92 ea bf d7 e1 1b 95 8d 6f f3 bf
       -0.8303591053030784 -1.214734632927607
000200 4b 49 29 da b8 fd 7b 3f 0b 38 ca 0d 5d c1 f3 bf
       0.0068337651051300725 -1.2347078837078722
000210 f0 24 e4 19 21 46 e6 bf f2 b0 b3 fb 49 3a e4 bf
       -0.6960607057273176 -0.6321153560689068
000220 be 9a 2a 07 88 e4 d5 bf df cd b5 cd 21 93 d2 bf
       -0.34207344722600996 -0.2902302273643879
000230 6d cb e0 ea 61 1e e7 bf 23 df 2d 07 82 a5 ed bf
       -0.7224588000739068 -0.9264536037653425
000240 2d be 47 c0 fa 7c d7 bf be fd cf 96 ca 9c d6 bf
       -0.3670031430947088 -0.3533197853830322
000250 8d b1 54 1f 6e 87 b0 3f af a3 d2 42 08 b2 bc bf
       0.06456650032914109 -0.11209155684868109
000260 9d 53 01 be 3e 22 fe bf de 29 8a 29 92 c0 d1 3f
       -1.8833606168820787 0.27737859779941043
000270 01 c6 aa dd 9b a0 f1 bf b7 ef 58 0c 0c d1 e5 bf
       -1.1017111452932797 -0.6817684403572376
