weights2.npy (npy, 6528 bytes, 1 tensors)

array f8 [10, 80]
000000 a9 37 59 1a b5 c1 fa 3f ed 1a 36 21 25 79 e6 bf
       1.6722918538321017 -0.7022882126483104
000010 46 f8 fa 8e 71 7d da bf 8f 99 21 87 d0 b0 fc bf
       -0.41390646899151695 -1.7931676176609448
000020 02 dd 72 06 8a 47 f9 bf 25 2a 69 bc 64 53 05 c0
       -1.579965615453887 -2.665719482383127
000030 94 3b 63 10 c9 c0 f4 bf 2f 72 ef e2 f7 ca 05 c0
       -1.2970667495862687 -2.7241056184123162
000040 6a 2b 56 89 96 11 e2 3f a9 de 60 e8 ba d0 f1 bf
       0.5646469766955822 -1.1134594990998414
000050 bf e7 78 64 f0 d7 f4 bf 56 0e f6 86 ff 67 01 40
       -1.3027194904993704 2.1757803481903393
000060 73 a3 df 48 c2 bf 02 c0 c0 78 da 71 0a a3 d4 bf
       -2.343632287335305 -0.3224512206887873
000070 4b 9e 60 fc 25 70 f6 bf bf e6 c0 af ff 57 fd bf
       -1.402379976128844 -1.83398407605857
000080 d9 82 84 cf 09 89 04 c0 fd 7f 61 f8 6f 2d ec 3f
       -2.56691324351446 0.8805465556324631
000090 52 50 a4 17 31 4c ff 3f 22 9e 51 81 2c 51 00 c0
       1.9561015056142605 -2.0396356680901286
0000a0 a8 f1 61 d2 02 e8 cb bf b7 53 ea b9 8e db eb bf
       -0.21801791451060848 -0.8705514556082709
0000b0 eb cf 31 03 3a 18 0e 40 e1 3b c3 85 fc 82 04 c0
       3.76182940002217 -2.5639582109647425
0000c0 af 7c 12 5c 2d 07 f5 3f 57 b2 6b 55 8d 13 eb bf
       1.3142522427149677 -0.8461367290852405
0000d0 9b 97 f1 83 07 b6 ef 3f 02 fd 30 8d 9d cf eb bf
       0.9909703804994366 -0.8690936811107408
0000e0 14 05 04 c6 df bd 00 40 ea c7 61 c8 2a 9d eb 3f
       2.092711970327068 0.8629354394636242
0000f0 42 5a 18 39 aa 2c ea bf 98 f6 7d 26 24 b9 dd bf
       -0.8179522624148563 -0.46442512282360715
000100 e9 95 c2 b1 f3 ae ea 3f ea 19 79 c6 51 46 f1 3f
       0.8338564369084313 1.0796678307393628
000110 c6 64 b7 24 29 9d dc 3f 14 2f 34 d7 a4 0d e8 bf
       0.44709232888778805 -0.7516655162048402
000120 04 aa 89 2b 7f f3 f8 3f 0f e3 a4 24 fa 6d 02 c0
       1.559447450703943 -2.3036997664279464
000130 27 ac 98 a9 6e f3 f0 3f e3 54 d1 b3 e0 28 02 c0
       1.059431707845542 -2.269959835840028
000140 00 c8 5c d4 cc 16 00 c0 ba 67 d7 9f d9 28 e0 bf
       -2.01113286884447 -0.5049865838911878
000150 2b fc 5e 6f 0b 05 b0 3f 88 79 9d 8c fc 3d f0 bf
       0.06257697552699486 -1.015133427884935
000160 12 9d e4 05 38 36 dd bf e1 ba a6 94 14 80 da bf
       -0.45643425536623383 -0.41406740681388327
000170 e5 5e e9 5a c8 0e cb bf 97 f3 fd b6 c4 5e 00 c0
       -0.2113886302856748 -2.046273641228662
000180 73 23 61 cd 8d 02 f6 bf da 70 a4 c3 ee 3d f6 3f
       -1.3756235144266753 1.3901202814368419
000190 bc 91 7d fc 8e 0f f9 bf cd a9 a0 ac b4 09 f3 bf
       -1.5662984717283583 -1.189869570089843
0001a0 09 37 ea 8d c6 ce ed bf 63 1c 49 50 a1 57 b3 bf
       -0.9314911624694285 -0.0755558796891918
0001b0 b5 ba 08 db 1d 3f f5 bf ed b5 7b bf 70 f3 f0 bf
       -1.3279093318957795 -1.0594336967291114
0001c0 2f 8a e1 d3 db e9 de bf 2c b1 20 df 46 02 c9 3f
       -0.4830236024046454 0.19538198370845217
0001d0 1d f5 c1 52 56 07 f9 bf cc 04 e1 95 dd 92 01 40
       -1.5642913086624681 2.1967117032332677
0001e0 38 c5 0b 5c c3 ab e7 bf e7 00 a9 16 5f aa fb bf
       -0.7397171781323442 -1.7290945897257701
0001f0 af 16 8c 7e fc ff f5 bf f6 03 56 23 ea ec f7 bf
       -1.3749966567278695 -1.4953404789268894
000200 24 bc ea a9 c1 ad f1 bf 3d 10 98 a4 78 f2 ea bf
       -1.1049210202579696 -0.8420985426641959
000210 53 42 bd 4a 5f cf f6 3f 1b 05 3e ce 72 cb e4 bf
       1.4256279868606228 -0.6498350170296904
000220 cd 3e b1 cc c5 55 ad 3f 3f 4c 64 d0 5d 5b eb 3f
       0.057295018421994116 0.8549031324531667
000230 ae a1 2c 61 dc d2 fd bf 5a 02 c7 d9 c9 a6 f6 bf
       -1.863979701602243 -1.4157198435715572
000240 89 1e 68 e4 a5 ae 02 c0 4e 4d c6 fe 87 f5 dd 3f
       -2.33527735178706 0.46811103706678103
000250 a2 4e 48 ba 93 26 f2 3f 98 f8 95 82 90 06 fa bf
       1.1344182278307149 -1.6266026593216676
000260 cf 12 1a be 50 74 07 c0 07 36 70 2b ca 0e ef bf
       -2.9317946292597763 -0.9705553863911413
000270 d0 9c dc ae 47 45 c5 3f e6 03 e9 62 62 a6 d3 bf
       0.16617675817653899 -0.3070302930755687
000280 b1 6b c8 30 45 7a f8 bf 5e 8b 03 c3 87 ce 03 c0
       -1.529851141508271 -2.475844882531802
000290 7e e5 9c b8 45 27 09 40 3c 92 89 df 70 ab b0 bf
       3.1441759512787817 -0.06511598069625618
0002a0 64 3e 8d e5 5b 7c d9 bf 5a 88 d2 1d 66 d2 02 c0
       -0.39821526925240947 -2.35273383425469
0002b0 e1 53 cc 5a a9 45 cb bf db 96 0b 1c 8e 27 df 3f
       -0.21306340154174477 0.48678925265117606
0002c0 64 75 53 55 73 1a 04 c0 b8 99 77 d1 03 10 f0 bf
       -2.512915293321088 -1.0039098913490374
0002d0 ab 43 40 c1 33 5c f2 bf dc 63 9d 2e 9a d3 f5 bf
       -1.1475102948063334 -1.3641607113734073
0002e0 da 3b a5 89 df 31 e5 bf ff 60 d9 87 16 27 d3 bf
       -0.6623380363833988 -0.2992607428218576
0002f0 fa f9 e7 34 23 f6 02 c0 26 ad 07 c2 52 44 f2 bf
       -2.3701843388837434 -1.141680486611969
000300 d5 08 6a 07 54 d7 fe bf a5 86 93 18 12 b1 f4 bf
       -1.9275703706376153 -1.2932301483164477
000310 55 c3 66 b0 54 60 00 c0 fa 8d 73 1a ca 3f e2 bf
       -2.0470365315781387 -0.5702868000630013
000320 28 7f 9b 5e c1 b3 ff bf 3d 8c bf 15 3d a7 fb bf
       -1.9813855834581293 -1.7283297395267845
000330 7b 9a 67 49 5e c5 f0 bf 17 ed d7 16 cc da d7 3f
       -1.0481856219645624 0.37272932272726805
000340 e2 39 2b e3 33 b5 03 40 0f 82 6e 2d 00 09 fd 3f
       2.463477873570114 1.814697434871167
000350 b2 ae 4c ba 66 b2 f2 bf e6 ea 38 83 a2 9c f2 bf
       -1.1685550000501448 -1.1632409215805466
000360 83 f6 22 24 74 9f ee bf 52 28 0a aa 2e dd c4 bf
       -0.9569645601074658 -0.16299994757383957
000370 f0 ca a3 62 31 b1 f8 bf 59 ad 0d a0 f9 0c 50 bf
       -1.543259988128451 -0.000979656004541271
000380 7e 40 1e 5a fd 00 ed bf e8 b0 bb e9 01 e8 bc 3f
       -0.9063708076592005 0.11291515308738875
000390 f7 6f bc 1a 86 ce e9 bf 1f a2 9c 7f 57 86 02 c0
       -0.8064604303540354 -2.315596577613419
0003a0 e0 60 84 b5 3b db f8 bf 84 d5 8d 68 cc d9 e6 3f
       -1.5535237398635715 0.7140867273398475
0003b0 a1 d6 a0 9d 3b f8 fe 3f d8 be 47 8c 2a 4b f5 3f
       1.9356037289957515 1.330851123780965
0003c0 b9 e2 30 33 fd 29 f5 3f 04 ca b0 9e d0 01 ed bf
       1.3227512359282356 -0.90647154802565
0003d0 76 49 38 29 80 20 e6 3f 6e 65 05 67 c8 e2 fe bf
       0.6914673619342426 -1.9303668998967072
0003e0 c6 b8 e5 e6 79 6c d0 3f 8d 6d 5b 7a 39 39 e3 bf
       0.2566208605629864 -0.6007354154384515
0003f0 5a be 8c 3c b0 ab ea bf e5 51 ef d0 a5 99 d3 bf
       -0.8334580595600969 -0.306252912557538
000400 b3 06 94 3f a4 ed e2 bf f4 ae 78 b0 31 b0 bf 3f
       -0.5915089837801218 0.1237822585905482
000410 da ff 66 75 10 7f f4 bf 30 84 59 0d a1 cd f2 bf
       -1.2810215555218663 -1.1752024194213497
000420 7c 45 5b 3d 53 68 e8 bf c8 4a 8c 17 0e 27 02 40
       -0.762735004269572 2.269069847077251
000430 46 2f 96 9b 1b 8e f5 3f 48 a3 f9 7b 23 ee e3 bf
       1.3471942975620137 -0.6228196545972446
000440 5d 7b 10 3a 9b ff 01 c0 e5 6c e0 80 08 de f1 3f
       -2.2498077904014466 1.1167073282475084
000450 b9 78 d5 41 84 f2 f5 bf 74 3b 78 65 a4 2a e1 bf
       -1.3717081615100553 -0.5364553434209101
000460 2c 07 4a 0b 1b 93 d5 bf 97 16 88 a2 d4 b1 e6 bf
       -0.3371036157842464 -0.7092078375287255
000470 fb 5f 6f 9c 65 63 fc bf d8 07 54 36 83 f1 e4 bf
       -1.774266825746962 -0.654481512174466
000480 59 07 45 3f fb 03 e1 bf e0 6e e4 cc c4 10 f4 bf
       -0.5317360149131033 -1.2540939334493757
000490 b5 9a 19 6e e0 26 00 c0 2a 70 41 b2 a5 f2 de bf
       -2.0189827539027996 -0.4835600128915326
0004a0 db 78 78 3a 3e 19 fa 3f 4e 6b 98 ad 8e 94 f0 bf
       1.6311628612525542 -1.036268880946142
0004b0 e4 1f 12 ea 9d 49 f4 bf e4 d0 dd ad 6b c1 e1 bf
       -1.2679728644743529 -0.5548609157399622
0004c0 88 52 82 26 c7 9a f8 bf 13 b9 12 db d8 c6 ea 3f
       -1.5377875808964365 0.8367733267566869
0004d0 78 4a 75 b5 9f af 8b bf ec 34 76 38 34 d2 f3 bf
       -0.013518569684184842 -1.238819332650844
0004e0 b5 24 7b c7 3b 19 fe bf 92 5b f5 3c bd 29 f3 bf
       -1.8811605255344095 -1.197690237158643
0004f0 ae 9a f2 3c 14 d5 fa 3f 87 32 55 dc 58 b4 ed 3f
       1.677021253659102 0.9282650283217472
000500 4d 4f 57 f6 ed 8b 05 c0 d4 9a 15 b2 9f 67 eb bf
       -2.693324970759852 -0.8563993910036864
000510 79 fe ce 80 3c 6e 0c c0 c8 7c 5e b5 9f 6f ed 3f
       -3.5538263381166044 0.9198759596219128
000520 8c 66 3f b3 83 d1 e4 3f bc 34 02 42 b0 f5 05 c0
       0.6505754948550062 -2.7449650914118973
000530 36 3b 41 04 2c 24 fc bf cb a0 63 b4 43 43 f7 bf
       -1.7588310400203233 -1.4539219900562326
000540 68 cd 35 1c 64 54 f1 bf e0 ea 70 e1 79 e4 e4 bf
       -1.0831032850226965 -0.652890148462884
000550 19 31 b5 6c 2c e1 ea bf c5 69 2a 91 98 c6 ff bf
       -0.8399870036314808 -1.9859853430303798
000560 d3 4e 41 fa 16 81 d7 bf 19 73 89 5e ff 95 a9 3f
       -0.36725401343322267 0.049972515382910206
000570 ab 52 28 da 01 39 f5 3f 16 47 ce 97 da 8a d7 3f
       1.3264177819993772 0.36784996819288673
000580 8d 07 34 a4 08 25 01 40 2e 80 f3 c1 ff 6d 0e c0
       2.143082888448538 -3.8037104752002255
000590 f7 60 10 0c 2e b0 fe 3f b4 1a 67 01 d5 4e f1 3f
       1.9180126639603807 1.08174610660505
0005a0 ff 2e 27 c6 bb ce f2 bf df 4a bd bd 80 80 b6 3f
       -1.1754720440248432 0.0878982985716834
0005b0 0e ba 70 a1 19 89 03 c0 78 d5 f8 a5 2b ec 03 40
       -2.4419434177900774 2.490317627579028
0005c0 0f f2 f4 db e4 8f f9 bf 70 2c 91 96 35 b0 ff bf
       -1.5976303665221427 -1.980519855644868
0005d0 71 a1 a3 c9 e6 17 cc bf e6 66 f4 46 d3 17 f5 bf
       -0.2194794163290328 -1.318316723982599
0005e0 9f 5e 6d 5d bc d5 e7 3f cd 46 f5 90 1a 29 f8 bf
       0.7448407959700097 -1.5100351011682733
0005f0 b7 fc 84 5b a1 5f e3 3f aa de 2d f2 30 bc b8 bf
       0.6054236209382883 -0.0966215697534333
000600 47 be a6 0c 70 d5 dd 3f c5 55 c7 d6 95 25 c3 3f
       0.46615220294458876 0.14958451258887187
000610 dc e6 b1 c5 6f b3 d5 3f 83 d2 23 9a 07 dd e0 bf
       0.33907694154878043 -0.526981164030602
000620 cf dc ad d1 a5 7c fd 3f 85 1f 7a dc a9 5a ec bf
       1.8429315748779123 -0.8860673242752318
000630 48 bf b9 e9 71 8d fc 3f 0f 36 f5 40 33 4f f8 bf
       1.7845324640183708 -1.519335988752008
000640 2d 61 f4 52 e1 dd 01 c0 a3 ed 28 d8 0c 69 05 40
       -2.233339927752374 2.676294029950172
000650 15 32 34 7f 67 04 e8 bf 18 c4 0a 4b 3d 2b 10 40
       -0.7505376324130021 4.042226002246956
000660 9c 7e 6e 16 e7 42 f7 bf de 80 d3 2d c2 1c f0 bf
       -1.453833663581384 -1.0070211210332256
000670 a1 6a fc 8d af 90 b8 bf d9 29 c0 50 4b 6c f0 3f
       -0.09595772949652794 1.0264390138933008
000680 04 0b 43 5a 40 39 05 c0 d1 c0 87 83 d4 49 f1 bf
       -2.6529547740659627 -1.0805249345685761
000690 08 4c be 15 92 13 f5 bf b4 87 77 67 64 90 f5 3f
       -1.3172779893254773 1.347752002875933
0006a0 6e 34 52 0a 2c b7 da bf 74 ee 3b 30 de e9 03 c0
       -0.41742993362351555 -2.489193322018588
0006b0 4a 29 b3 93 7e eb ee bf b2 0b 12 6e ee c8 ed bf
       -0.9662468800318404 -0.9307777547659184
0006c0 e8 8d f7 48 f1 30 00 c0 f2 1e 57 bd 1c 23 f6 3f
       -2.02389771466709 1.3835723301035014
0006d0 23 55 d9 f2 15 33 fd bf ed f4 a9 52 5b bf f6 3f
       -1.8249721037185018 1.4217179516847935
0006e0 59 fa a8 bc 33 ae fd bf 8f d5 d0 d3 80 ff e2 bf
       -1.8550298089536652 -0.5936893593813454
0006f0 24 12 33 30 d2 d1 cb 3f fa ba 7f 42 a3 15 f6 bf
       0.2173407302235698 -1.3802826497664555
000700 26 e7 95 1d 9b 44 f9 bf 0a 2a fd 02 51 76 78 bf
       -1.5792494922338363 -0.005972210361344663
000710 9e 87 fc 46 28 0e dc 3f e9 06 bd 4b 29 02 e6 bf
       0.4383640950419422 -0.6877638320222249
000720 9a bc 7c 98 81 33 02 c0 f8 60 13 57 a0 02 f2 3f
       -2.2751495278422 1.1256411935228794
000730 e2 34 e7 21 2c 48 02 c0 e5 b7 24 2f 59 f6 93 bf
       -2.2852404259380004 -0.01949443197479885
000740 bc fc 1c bf 89 de c5 bf ea 31 ea f5 dd 72 88 3f
       -0.17085382301045182 0.011937841479515893
000750 a2 51 37 a1 7e c2 ec 3f 51 d6 17 c2 e1 f7 f0 bf
       0.8987420223953004 -1.0605180341493858
000760 2e fd d8 a3 8b 84 00 40 43 db 53 fe 02 fe d0 bf
       2.064719467219809 -0.2655036433856603
000770 23 fd 51 aa a2 e6 f0 bf 46 8f f4 41 d3 22 eb bf
       -1.0563074734817028 -0.8480011261167213
000780 36 96 73 cf ee 3e f6 bf 8e 94 b8 a1 8e 62 e2 bf
       -1.3903644660544052 -0.5745309027303322
000790 6e d6 11 64 c2 93 e9 bf 14 1d 8c 27 ac 34 f8 bf
       -0.7992870287404921 -1.5128594918076645
0007a0 e5 64 2c 4c d0 ad d1 bf d3 65 87 06 f3 16 fd 3f
       -0.27623374403772366 1.818102860930925
0007b0 9b 5c 7d 4b f2 73 de bf f1 2b 1d f6 49 01 fa 3f
       -0.47582681057014903 1.6253146756960144
0007c0 db 04 54 01 9e 9c 04 40 09 1c 9b e0 30 34 e9 3f
       2.5764732459798387 0.7876209627946774
0007d0 68 e8 e5 80 5c 22 f1 bf 82 ca 37 de e0 58 f6 bf
       -1.070888999469867 -1.3966988258731878
0007e0 e0 a1 28 9c 29 71 e8 bf 87 8f b1 2e 48 19 ed bf
       -0.7638137865042687 -0.9093361770614913
0007f0 2f b7 8d c4 51 5a f1 bf 0a e1 05 44 8e d3 f2 bf
       -1.0845506360887602 -1.1766493470332215
