weights1.npy (npy, 262272 bytes, 1 tensors)

array f8 [128, 256]
000000 52 06 a6 11 8e 9c e0 bf ca ba a7 0b 85 75 a7 3f
       -0.519110712499421 0.045818479225876965
000010 b6 a1 1e 72 fb b6 02 40 5a fd bb d7 46 1f e7 bf
       2.3393467822645233 -0.7225679601250861
000020 03 c1 25 af 88 f8 eb bf eb 76 b2 a4 5a 13 ed 3f
       -0.8740886135911129 0.9086125580540431
000030 e9 62 72 af e3 41 ec 3f 2b fd 2e 8e 6d ef d6 bf
       0.8830431391425836 -0.3583635223876224
000040 d6 da d4 dd 7c f9 f7 bf d7 44 11 83 b9 5a e6 bf
       -1.4984100976268357 -0.69857478713143
000050 82 fc 3d 2e 15 9c dd bf ce 00 bb 61 12 29 ef 3f
       -0.4626515342315046 0.9737636479185541
000060 89 35 fc 7e 8c 81 b0 3f 4c db f5 d0 06 24 f6 bf
       0.06447675800537502 -1.3837955629839653
000070 4c 8d fb ff c1 6f ea bf 62 5b bd fa b5 87 81 bf
       -0.8261423110638275 -0.00855962916800274
000080 86 8b d5 3c 42 e2 b8 bf 21 fd 45 e9 f3 a2 d0 3f
       -0.09720243439873685 0.2599458482799993
000090 a1 0b 6a b0 8e 46 f2 3f 48 4d db 46 f5 ca d9 bf
       1.1422259226971863 -0.4030125801047757
0000a0 8c 6b d3 c9 fe 86 81 3f c7 7f f2 34 af 32 f0 3f
       0.008558264288174099 1.0123741214992934
0000b0 25 b6 0d 5d 51 a8 de bf 73 54 26 2d 4a a6 e0 3f
       -0.4790233048177888 0.5202990419226253
0000c0 d5 d6 0a 2b 74 60 f7 3f 7e 95 46 e0 a2 09 f2 3f
       1.461048286565917 1.1273525963564164
0000d0 84 60 3b 4f 15 32 ca 3f be b7 78 e9 b8 2d f6 bf
       0.20465341919657842 -1.3861626739485327
0000e0 e4 25 26 d9 64 e5 c2 bf e4 2f 34 1c 0d 76 db 3f
       -0.14762554743747025 0.4290802741459159
0000f0 e5 ee f8 8e 1f b8 e4 3f 52 bd bd 13 03 87 fc 3f
       0.6474759857587428 1.7829619189395385
000100 fd bd d6 38 53 b6 d3 3f a6 ee 77 bc 37 13 c8 bf
       0.30800324011485697 -0.18808647825777774
000110 c6 00 52 8b 58 4a cf bf 3b 17 c3 59 10 63 e2 3f
       -0.24445635607481203 0.5745927575269215
000120 74 2d e3 7b 72 90 dd bf 52 21 17 2b e2 66 a6 bf
       -0.4619413575971614 -0.043753688583424336
000130 67 0c 29 2b 43 05 d5 3f 6f 03 6c ae a9 25 e0 3f
       0.3284461900222539 0.5045975119283933
000140 d4 56 c9 ee 80 7e d8 3f 2c db 52 1c ae 9b f2 3f
       0.3827211696528654 1.1630078417198986
000150 dc 43 b8 30 77 c8 c4 bf 2d 81 55 43 14 ed f3 3f
       -0.16236772421737455 1.2453806524500337
000160 4d a1 cc ac d1 81 c7 3f 33 81 58 90 8f 50 d4 3f
       0.18364926278560248 0.31741704078924043
000170 f4 b6 42 f6 b9 bc ea bf 80 cf f2 9c 3c d0 c3 bf
       -0.8355378923203873 -0.15479238189220368
000180 1a 4d 3c 62 f6 f9 d0 3f 16 65 92 da 9d dd df bf
       0.2652564963656957 -0.49790140480907163
000190 a4 f4 80 8d 8c f3 d6 bf fe aa 3c 7b 43 3d fb bf
       -0.3586150533554451 -1.7024569333977406
0001a0 bc 92 0d a3 3f 6d f2 bf e6 11 fd 99 d0 a0 d0 3f
       -1.151672017026768 0.25981535947747003
0001b0 43 bb 6d 32 86 40 e3 bf 07 06 02 be c9 eb d1 bf
       -0.6016264901098584 -0.2800163608118002
0001c0 63 51 72 50 e9 c6 da 3f 7c 76 a7 8f 34 4e d9 bf
       0.4183905873881228 -0.3953982737419677
0001d0 09 70 41 20 1e a2 db 3f 5d 69 64 b3 e2 31 e7 bf
       0.4317698779102562 -0.724839544654326
0001e0 a1 ef e0 a0 69 cd f7 bf 7e 33 d2 4f c4 4a c8 bf
       -1.4876495632479207 -0.1897817029715973
0001f0 ab 9e ba 28 1b 54 e1 bf 7e a2 9c b1 a7 bf 05 40
       -0.5415168567169152 2.718581569283116
000200 27 96 3d e6 3e 82 f1 3f 5b 1d 5c e4 af 22 f8 3f
       1.0942982667705878 1.508468524962004
000210 f3 f1 d8 1d ae dd bb 3f 9c 7b 34 82 27 2d df bf
       0.10885132054040252 -0.48713100161870115
000220 c6 98 fc df 85 5f e2 3f 0a 8d f6 03 f8 5b d2 bf
       0.5741605162372927 -0.286863330717282
000230 cc 3b a3 e1 bb dc f9 3f 5e 80 0c b0 3f 37 e5 bf
       1.6163901151628464 -0.662994235844973
000240 f2 26 e2 c9 fa 03 9d bf a4 fb 51 db b0 db b7 3f
       -0.02833549363325622 0.093195966286642
000250 41 f1 7c 44 48 09 d0 bf 58 03 5f a1 31 30 eb bf
       -0.2505665463284182 -0.849633040597932
000260 30 58 72 82 c3 cd c0 bf d6 82 65 ea 0e 67 ef bf
       -0.13127941007104615 -0.9813303545052701
000270 f0 16 e3 5e 22 ee e1 3f 85 92 32 6c f1 54 e0 bf
       0.5603191235793172 -0.5103690255387653
000280 ff 05 21 4f 25 43 d9 3f 56 af ac a8 f8 0d c7 bf
       0.39472325065079866 -0.18011387096464188
000290 eb 88 f6 c6 ef c0 e7 bf 21 d6 0d bc fe c4 f6 bf
       -0.7423018346783271 -1.42309449633229
0002a0 14 37 c3 3f 98 25 c4 3f 2e 12 b6 12 ae 28 f4 bf
       0.1573972998943921 -1.259931634035762
0002b0 ec 59 75 f5 80 83 ee 3f 70 5a 6c 5a 97 eb d2 3f
       0.9535527032956543 0.29562934713741296
0002c0 41 a1 e5 b3 4c 2a ac 3f b0 7e a8 d2 76 12 c4 3f
       0.05501022048958016 0.15681348119777772
0002d0 b7 1e d1 db 26 0b df bf c2 fa a0 fa 3a fd f1 3f
       -0.48505565134517376 1.1243238249004865
0002e0 a5 fb b0 80 0d f9 ad 3f 29 19 61 9b 6a ad f3 bf
       0.05854074665011603 -1.2298379964355013
0002f0 c9 80 6c 76 51 a5 c5 3f b5 f4 58 0c 0a d0 c8 3f
       0.16910761148847644 0.19384885409264077
000300 14 cd 78 ed d1 e3 dc bf 3e ef b2 0b 17 f4 b9 3f
       -0.4514050311147042 0.10138076816195693
000310 21 35 26 5e 94 26 f2 bf 5c dd 62 b8 f7 e4 e1 3f
       -1.134418838282109 0.5592001534741189
000320 b6 2b fa a5 66 0c da 3f 56 d6 18 e7 8b 20 e1 3f
       0.40700689514840904 0.5352229608167345
000330 fe b2 d5 b5 52 a0 ec bf ab 52 99 8f f2 6b e9 bf
       -0.8945706893406109 -0.7944271855036126
000340 b0 c3 40 b3 a5 d1 e4 3f 5f cb 99 1e 48 04 ed bf
       0.6505917073283083 -0.9067726705237468
000350 35 1d de bf b3 07 e3 bf 4e 87 9f f5 f2 09 a0 bf
       -0.5946902034201346 -0.0313259053070981
000360 1e 75 ef 56 aa ab fd bf 2e 18 f0 22 b7 c4 de 3f
       -1.8544104953683198 0.48075655376340165
000370 81 ab e2 a1 f0 c6 df bf 08 eb 9d 72 8b 6e cc 3f
       -0.4965173321640393 0.22212355705763565
000380 f2 6d 19 a5 f1 91 ca 3f 64 97 01 83 af 8a e9 bf
       0.2075788551472751 -0.7981793936457788
000390 d5 b6 9e d3 c7 0c db bf 4c 50 32 69 5a de e3 bf
       -0.4226550642587033 -0.620892720663059
0003a0 d6 3a 5c 4a 4a 5a de bf fe b5 f4 d3 30 12 e6 bf
       -0.4742608762907542 -0.6897205486072264
0003b0 d5 a1 e5 f4 57 04 e8 3f 59 49 63 d6 3e c1 d6 bf
       0.7505302222389739 -0.3555447667723875
0003c0 e0 81 3a 2f 1c ad d4 3f cc 64 4d bc 26 be cd 3f
       0.32306580173647426 0.23236545748185333
0003d0 02 6e 84 ab 58 61 d2 bf 9c d1 e4 4a 0c 19 d2 bf
       -0.2871915507291477 -0.28277880967950764
0003e0 f9 db 50 21 02 8a ee bf d4 e8 43 81 a5 08 b9 bf
       -0.9543467188549349 -0.09778818517580429
0003f0 93 6f 3e 07 e9 ad be bf 70 8f 78 1e 40 fe e6 bf
       -0.11984116007664473 -0.7185364337096711
000400 6d d3 fd 28 5a b9 f4 bf 30 61 29 cd c4 cf e3 3f
       -1.2952519990187412 0.6191123969138399
000410 cb f1 57 52 f9 92 d2 3f 6b f7 82 af 2c 93 ec bf
       0.29022057572708765 -0.8929656436882686
000420 2b db 2a 4f d0 d8 fc 3f 7b ce ba 8e b2 02 d1 3f
       1.8029330341793848 0.265789641746984
000430 02 a8 9d ad 64 84 e6 3f 2a 93 85 1c 9a 0e e7 3f
       0.7036612883505315 0.7205324704233125
000440 65 20 80 7e 07 b1 c1 bf 53 7f 9b de 4f e3 c5 3f
       -0.13821500469953488 0.17099951142790334
000450 0f cc f9 21 46 4e 88 bf dc 8c 5b a5 70 43 eb bf
       -0.011868045722826208 -0.851982424701784
000460 52 d1 c8 77 52 16 c9 3f 78 04 75 82 04 74 e4 3f
       0.19599371765947154 0.6391623065939163
000470 73 22 c4 b4 c9 ae e3 3f b3 13 9b 07 40 01 e3 bf
       0.6150864153469925 -0.5939026020574744
000480 a8 cb 37 a5 95 dd 00 c0 01 95 de 3d ee d3 e2 bf
       -2.1081955821659513 -0.588370438422004
000490 20 4c b1 1e 53 b4 92 3f 85 9b 71 ed 69 16 de 3f
       0.01826600909073417 0.4701180285250575
0004a0 86 a5 be c2 97 c4 eb bf b0 54 57 47 a6 56 f8 3f
       -0.867748146401184 1.5211546694529652
0004b0 0d 37 a9 c5 6d e0 e9 bf b2 ac 0a a2 1c ab f7 bf
       -0.80864609342254 -1.4792753534082235
0004c0 8a ea bf 69 ff 15 e4 bf 08 36 b3 0b af 6b ce 3f
       -0.6276852670119564 0.23766124793330357
0004d0 ee a4 76 8f 68 1f e8 3f 81 a1 58 6e dd 50 ec bf
       0.75383403797346 -0.8848712115478038
0004e0 88 37 59 73 69 06 cf bf 35 47 c5 f0 49 2d d5 3f
       -0.2423831761574855 0.33088921082263606
0004f0 9f 53 43 49 d3 da dd bf 34 a1 0b 5f fb 03 e8 3f
       -0.4664810386141713 0.7504860741001154
000500 1c 8c 2c a8 9e 35 e6 bf 2e b2 c6 6f de e1 fb 3f
       -0.6940453800820054 1.7426437727218729
000510 7e 82 74 0a 96 0a e4 bf b9 3e e7 b2 96 62 ee bf
       -0.6262922481729019 -0.9495347494320959
000520 66 02 31 62 9c 9a af 3f 3e 5d b6 71 5c 9f c6 3f
       0.0617264623510934 0.17673831512795773
000530 c1 e1 fc c8 a3 6f ed 3f bb 6c e1 16 5a 22 e6 bf
       0.9198779035132746 -0.6916933485876123
000540 c3 e0 6b 3e ac 8b 8c 3f ed cc 05 38 83 f6 e7 bf
       0.013938279776525403 -0.7488418668930571
000550 53 a3 40 f2 7d 13 e6 bf 5f 0b 57 89 94 2d e5 3f
       -0.6898793918127047 0.661813991777631
000560 6a c6 8f 9a 1c 04 e3 bf c1 da 8f 4d ba 35 e5 bf
       -0.5942519205838839 -0.6628085627442816
000570 a6 2d 81 d8 60 4d e1 bf 73 ea 8d a4 9e cf ea 3f
       -0.5406955937009357 0.837844201464874
000580 a2 2c 7b f1 dd 8e d7 bf db e1 ac 07 f0 25 e4 bf
       -0.3680949075903276 -0.6296310567768687
000590 33 12 ff 00 0c 77 eb bf 9d ec f0 2d 86 1e c5 bf
       -0.8582820910892849 -0.16499402278154643
0005a0 8a 86 87 95 f8 9c f1 bf 4a 60 9d 36 67 a7 d4 3f
       -1.1008230057708794 0.3227174790713475
0005b0 c6 5b 27 70 de 39 dc bf 2d eb 75 16 4e a1 a9 3f
       -0.44103203728212426 0.05005878471543777
0005c0 e5 fe 66 9a 94 b2 f9 bf 48 c8 a0 6b 27 13 f4 3f
       -1.6060987502423185 1.2546762661190929
0005d0 93 1d 47 28 8a a5 bd 3f 52 87 54 db ad e1 ee bf
       0.11580718501419644 -0.9650487216751833
0005e0 ec ac ca f6 1d f5 d9 bf ad ee 1d eb 1a 38 04 40
       -0.4055857572627264 2.527395092822039
0005f0 f9 d2 79 61 10 f3 db bf 2a c3 8c e2 7d 01 ea bf
       -0.4367104484474989 -0.8126820969392601
000600 e6 75 ab 85 2e 36 e7 bf 95 6a 08 2e 5c 5b d7 3f
       -0.7253639803636218 0.36495117659948423
000610 4f df 02 dc ce e1 d7 bf 9c 06 50 d8 fb 9b e4 bf
       -0.3731572292849607 -0.6440409874778257
000620 59 b9 34 44 3e 37 ec 3f 20 d7 d4 ce 53 1f 02 40
       0.8817435581347964 2.2652965697005953
000630 6f 62 ba 9c 14 b7 f6 bf bb b5 f8 64 21 cc d8 bf
       -1.4196973917188662 -0.3874591337251691
000640 c7 8c a5 9f 5f db ef bf 76 90 5e 34 20 38 f6 bf
       -0.9955289953326422 -1.3887025876693122
000650 db ea b2 41 48 8a f2 3f dc c4 02 45 73 d7 d7 3f
       1.1587603155482415 0.3725250410016778
000660 5e 36 44 fb f5 87 e9 3f 6b f6 10 19 7d 34 f1 3f
       0.7978467853115025 1.0753146151686461
000670 de 6e 71 52 b1 80 d5 bf 98 91 f2 ec b8 34 6f bf
       -0.3359797768696192 -0.0038093196704542358
000680 21 a0 3c a7 19 50 d5 bf 73 e4 3d 24 30 92 e8 3f
       -0.3330139287159018 0.7678452213141455
000690 11 51 13 3b 5a a0 d0 bf 12 77 1e 52 39 9c e8 3f
       -0.25978713769042466 0.7690703014265827
0006a0 fe e5 e0 d2 73 cd f6 3f 8c 28 b9 a5 77 2c f7 bf
       1.425159286255052 -1.4483562921109607
0006b0 ee b9 ef 12 46 70 d2 bf 1f db 52 8a e4 fc cb bf
       -0.2881026444364626 -0.2186551738174893
0006c0 6a e2 15 ad 51 e0 fa bf aa 04 fd a7 04 e4 e6 3f
       -1.679765392413311 0.7153342515013226
0006d0 a0 70 d3 4a 91 57 ed bf a0 52 b7 98 41 7b e5 3f
       -0.9169393979496085 0.6712959273086945
0006e0 67 00 1c c7 9d bf d9 bf 02 09 6c fd 1f b1 a6 bf
       -0.4023203319957304 -0.044320106206230406
0006f0 9e 17 13 8b 65 a4 f7 3f 4f 73 6c 20 65 97 df bf
       1.4776359016991374 -0.493615419067102
000700 53 3b 38 1c 85 37 d2 bf 0f 1e 83 d8 c0 40 ea bf
       -0.28463866954637246 -0.820404456019732
000710 94 af 0f 2b 2c e5 b7 bf 0f 7a 16 1f 64 5f c5 3f
       -0.0933406453256665 0.16697360532721503
000720 05 9e c1 c3 49 42 eb 3f 1c cb 78 b7 96 ef d5 bf
       0.8518418143621039 -0.3427483360020902
000730 c5 68 d7 53 0e 58 ef bf 60 dd e8 e6 b7 b4 f0 bf
       -0.9794990193870708 -1.044120695105299
000740 1c 54 92 84 83 33 e1 bf 2e 38 f1 6c 96 2f 86 bf
       -0.5375382985390647 -0.010832953643468892
000750 41 d0 aa 0a 4d 99 f1 3f db ad b1 f2 3d 7d e3 bf
       1.0999269882859297 -0.6090383281820623
000760 50 86 57 3d 7b 51 e5 3f 9a 15 82 83 db de e9 3f
       0.6661964605411388 0.8084542816656495
000770 f2 f9 e6 41 cc 4b f2 3f 7e c2 d9 c3 90 c8 c1 bf
       1.1435053419405645 -0.138933272962749
000780 23 9b 43 aa 1e fa d1 3f 21 0c 07 8a 17 c9 e0 3f
       0.28089110019065994 0.5245473571634457
000790 b7 4b 1a 8f 79 0d a4 3f 95 07 4c 58 a4 62 e3 bf
       0.03916530486926411 -0.6057912563849067
0007a0 47 69 99 d9 69 8f f0 3f cb ba f7 99 eb 3b b7 3f
       1.0350130557986448 0.09075806149460701
0007b0 4b 49 48 cc 24 2a da bf 7c bf 46 bf bc f3 ee 3f
       -0.4088222498841289 0.967253087603225
0007c0 8f c0 c2 5a 08 6e e4 bf 0d 26 e2 56 be 54 d6 3f
       -0.6384317181273377 0.34892233357149466
0007d0 bf 3d 1e a0 d6 4c f5 bf ca 68 ee 2c aa 78 f5 bf
       -1.331259370290226 -1.3419591670158746
0007e0 17 92 fe d0 9a 5b e0 bf ba d8 91 ef 5a 34 d7 bf
       -0.5111822206422997 -0.36257050891380127
0007f0 b7 07 7e d9 46 43 f3 bf 4d 72 67 c7 ef d2 b6 3f
       -1.203924989299123 0.08915613764060844
