weights1.npy (npy, 128128 bytes, 1 tensors)

array f8 [80, 200]
0.1898575294172929 0.7858891359769286 -0.6407823357502419 0.6707775957126549 1.1146245710665446 -1.156783091503636 -0.9641534500058995 1.2185546327798364
0.13684437704854002 -0.6107172406154818 1.2840232760568897 2.1079732297332763 1.0811558964712424 1.1625388056612809 0.5325984999108482 1.28529923087211
-0.22004512090226314 -1.1129972404538462 -1.7925157626481674 2.179340341992847 -0.021082752468691013 0.05266162495646615 1.396881224214597 0.6221381216620555
0.35257370216703654 -0.8757719423424174 -0.2284700662966754 -0.4569226928848712 0.6377121597051801 0.8195919305529337 -0.5562333411010256 0.1940356608919444
0.013116156870896019 1.3788630482838526 3.266274399838437 1.1322376146287996 -1.2135441564195935 1.4691982677884976 0.4789522400842524 0.39874051792471055
1.035683460971529 -1.5294390172858845 -0.05499463410259457 -1.6119525880196417 -0.3968224688666156 -0.15414756000581628 -0.4424104823340092 -0.12954757120223634
-1.8210379026095933 1.2900533527569675 -0.5741050097719776 0.11144484065049376 2.281416587401843 2.701132390555168 0.10662153653985779 1.9795658037295576
-0.4620426945077066 0.6478252985079045 -1.2811924579662604 -0.32802951253535256 0.2339318289505936 -1.8644710317674986 -0.6302044378502164 -0.4179979627113454
0.8822117401535552 -1.07563273236971 0.9491116508046609 -1.6589403162248286 -0.6639186310617333 0.09071430018470644 0.7853243041552869 0.4197611393777631
-1.4524937787486643 -0.6090019547708975 -1.3152251438351203 0.6958241686764405 -0.7281638997333644 1.1048505399258342 0.6026651416168053 0.1377881273377043
1.327111851409363 0.20534867112827476 0.44770502254875133 -1.366399345655996 0.2159627928598004 0.2319786718710354 1.1142216825113418 -0.1835976838970734
0.708071752252987 -2.3069762219697005 -0.4233660621696389 -1.1820974100213852 -0.4088618685925565 1.4251864020464375 -1.1748175046583667 -0.8521478951615314
0.4920669103937606 1.4152995872726186 1.1945456371270453 -0.7706885831181056 -0.3546839050861157 -0.7131217319886952 -0.8204667354765259 -0.3617481371595929
1.1804861766398977 -0.7253014268467488 0.3356343947763734 0.11959448224830355 0.12009889914790922 1.8297065754931723 -1.1496517577559244 1.2287042328748607
0.23657127159367597 0.8259650797539675 2.0503832941603966 -2.0142548292318962 -0.21453959831630098 -1.453484720663527 3.7985483493313486 -0.28881804713475434
0.23862902872920408 0.11018341535006888 0.20268731588221786 -1.2317776450234588 -1.8461357982951094 -0.9182759259382391 0.5029848273445003 -0.7432288763907858
-0.7090086389951581 3.3181742798812603 -0.8497095334857068 -0.041863590497489625 0.8667079287984694 -0.3548746566435147 -1.3335822113974343 -3.105682962903667
-0.09511002487113525 -1.707768008613223 0.49830677962665787 0.07818866414920407 1.3292655288434374 1.9701792178040278 1.3454067508092054 -1.2006886484721382
0.011095077605510095 0.15755178403761272 -2.3911989947456744 -0.45114421122891785 0.18967298393848786 -0.24127957449811419 -1.731249442595818 1.1945389591962174
0.6155681696996169 0.32864189733142524 -1.2530181978277628 -0.1454966749561699 0.09293569171690094 -0.4755398709767666 -0.6453559631935702 0.3172046979745758
0.5586637890499496 0.9463878752231184 -1.160824709041527 0.11763279467407084 -0.08086851424535313 0.8277126098882001 2.185801954514618 0.34636941386349696
-0.5063015302048929 -1.140485272312149 -2.002892167639736 0.34502812053992227 0.4237157046494754 0.6416467350340528 1.3776579275838052 2.1149123068104108
1.435061461935113 0.7169327012989652 1.1474342010594951 0.004270471391791203 0.03787043599124126 0.08473199339593239 -0.32892923954948766 -0.09380834564795149
0.7769643849881271 0.2256118568455884 1.0278526893148443 0.47196682373359006 -0.3974057097520593 1.1705771225741843 0.7999180315793314 -1.0312271365127896
-1.206203146005024 -1.6037740954992514 0.1706165648507819 0.2854864111416007 0.21221224677808928 -0.9472782749403024 0.5616097985656346 -2.334749580411802
-0.6356799874373436 1.7227817565267143 -1.2423881227633304 -0.61170454393494 -0.6417980971278825 -0.31268344790370933 -0.8381218541572298 0.5275742410243226
0.6883962588690105 -0.4119973486041119 -0.7325852086895621 -0.9854230457995072 -0.08376618070579804 0.735371841795966 0.20644041425644596 -0.5989202523492653
0.4029192994395032 0.4502696471211128 0.31851012593531297 -0.2834990279768618 -1.9809954294209713 -1.7959517995821654 0.08132513802447595 0.3639488113667048
-0.3601819835327224 -0.3012113743230844 -1.788468528975812 -0.5482476955622404 0.8333660781309536 -0.4771230802874629 -0.3781544196750239 0.45374515503734303
-0.187776015357736 1.633181318972836 -0.4933035265104386 0.3333583524037641 0.28793772461640715 0.4259507181968496 0.7632953977663343 0.4925279444098364
1.3690390203852842 -1.478190376956041 -0.09153303914989201 -0.6092047208831678 -0.3147519624593815 1.968631772782333 -0.8274343525977601 0.4169154723747792
-0.8690127315689321 -0.7135609295227814 -0.12577778758554015 0.7113992991383006 0.1174950770819003 1.0804922610293528 1.0152175204051659 -0.9312934723638645
00000000: 9a91 df63 404d c83f f1ae 29f9 0026 e93f
00000010: 63db fcf4 4981 e4bf 2c36 8f93 0277 e53f
00000020: 09c8 0093 80d5 f13f a92e a9fc 2e82 f2bf
00000030: a63a 0356 58da eebf e7db 8224 337f f33f
00000040: 0451 08d6 1d84 c13f db7f f1e1 fe8a e3bf
00000050: 5479 9ffd 5b8b f43f 2262 9411 21dd 0040
00000060: 768b 1320 6a4c f13f 6e56 6a4a c299 f23f
00000070: 0a81 6002 0c0b e13f f4b6 22ed 9590 f43f
00000080: 00b5 f542 702a ccbf ac99 c431 d6ce f1bf
00000090: cb36 2202 25ae fcbf aeb3 3dfd 496f 0140
000000a0: 5065 7391 b796 95bf 396d e2e9 76f6 aa3f
000000b0: c55e 6620 a059 f63f cb44 c434 8ee8 e33f
000000c0: 182c 0f4a 9190 d63f bdae 63e1 5206 ecbf
000000d0: 5ff9 6dd3 813e cdbf d668 afad 383e ddbf
000000e0: b73f c654 2368 e43f 934a 39db 183a ea3f
000000f0: b228 1fdd a9cc e1bf 66f2 e418 29d6 c83f
00000100: 2446 7ac6 a4dc 8a3f 19ac 20b3 d20f f63f
00000110: 808b f878 5421 0a40 a11b 6230 a51d f23f
00000120: 5c2f 0147 ad6a f3bf f8dc f70a d681 f73f
00000130: de7f e04b 27a7 de3f 34e9 04f3 f684 d93f
00000140: cc17 1ed2 2892 f03f 0f82 070c 9578 f8bf
00000150: b62d dab5 4128 acbf 65f3 03cc 8eca f9bf
00000160: e967 8611 8a65 d9bf cbd8 7d74 1bbb c3bf
00000170: d50e 420e 7450 dcbf c37f cbca 0395 c0bf
00000180: 12c1 c7a3 f822 fdbf 32fb 02fc 0ea4 f43f
00000190: cb17 2e78 115f e2bf 80dc e629 a687 bc3f
000001a0: f08a fb56 5740 0240 54ce 7c4c eb9b 0540
000001b0: d4ea 7c8c 8c4b bb3f 44c6 3431 4dac ff3f
000001c0: 5d0b 9185 1b92 ddbf c69c d31e fcba e43f
000001d0: 148d ada9 c37f f4bf 0d94 1d7f 6ffe d4bf
000001e0: c00a 6b69 7af1 cd3f 177e 9c93 dfd4 fdbf
000001f0: 378b 4b7f a22a e4bf 67f3 e886 7ac0 dabf
00000200: a86a 831d 143b ec3f 768f 00ab ca35 f1bf
00000210: c6ac 8e65 1f5f ee3f 7f39 4300 058b fabf
00000220: 00b0 f348 d23e e5bf b4a5 9268 0d39 b73f
00000230: b03a 636f 6021 e93f 9396 70d3 5ddd da3f
00000240: 50e7 d51d 6a3d f7bf 4b1d deaa f17c e3bf
00000250: 3b61 3a85 290b f5bf 156a 070c 3144 e63f
00000260: a671 ef60 1e4d e7bf be30 7fc2 77ad f13f
00000270: 4fde 3568 0849 e33f 9ca4 5896 0aa3 c13f
00000280: e0fe fea2 d93b f53f a6f1 6281 dd48 ca3f
00000290: 6084 86f7 32a7 dc3f 91e4 6d8f c5dc f5bf
000002a0: 462a 3e36 aba4 cb3f 4d1e 8724 7ab1 cd3f
000002b0: be15 6e1d dad3 f13f 8fc9 faff 2080 c7bf
000002c0: 5dbc 6417 86a8 e63f 7513 10f3 af74 02c0
000002d0: 5050 d0f7 6d18 dbbf 83a6 4bf9 dee9 f2bf
000002e0: 49ef 8bf8 ca2a dabf cae4 b741 90cd f63f
000002f0: 8c6a 9470 0dcc f2bf 535e a2a9 cb44 ebbf
00000300: 0e70 e535 067e df3f 160d 162e 11a5 f63f
00000310: 6da4 d0e2 db1c f33f 2892 7c1a 7ba9 e8bf
00000320: bccb 301f 24b3 d6bf 95aa 9eaa e4d1 e6bf
00000330: 637b 8a74 4341 eabf e751 9fa8 e126 d7bf
00000340: 69c6 2079 45e3 f23f c690 8156 ab35 e7bf
00000350: b58b 3eaf 087b d53f 34dc 0976 be9d be3f
00000360: 2c39 202c cdbe be3f 2d4f f066 7a46 fd3f
00000370: 199c d53d f964 f2bf fe77 0ac5 c5a8 f33f
00000380: 1c80 55a9 f747 ce3f 64cd a551 4e6e ea3f
00000390: 1e78 455b 2f67 0040 73e3 caa2 311d 00c0
000003a0: 2895 3b97 0876 cbbf cac4 c731 7941 f7bf
000003b0: 3139 2551 6d63 0e40 080e bcb0 fe7b d2bf
000003c0: 9753 2261 658b ce3f 2d79 7df5 fa34 bc3f
000003d0: 539a 8370 a8f1 c93f 4c1d d579 5cb5 f3bf
000003e0: 0470 dab0 c589 fdbf be7b d331 8462 edbf
000003f0: d285 faa2 7318 e03f ef51 b1ec 87c8 e7bf
00000400: 011a a2e2 32b0 e6bf 9c25 f4f4 9e8b 0a40
00000410: f674 2d0c d230 ebbf aae2 2800 256f a5bf
00000420: 42f2 2b44 12bc eb3f d6a3 1d31 44b6 d6bf
00000430: 5fab 074d 5a56 f5bf 3653 2b4f 70d8 08c0
00000440: b5e0 576e 2159 b8bf a561 228c 0453 fbbf
00000450: e1c7 771e 42e4 df3f 8552 701b 2c04 b43f
00000460: c652 61ee ab44 f53f 73a2 bba4 da85 ff3f
00000470: c7b0 a83a c986 f53f 42dc dd4c 0536 f3bf
00000480: 00af b21b 04b9 863f ac1a ef27 a82a c43f
00000490: 3649 45f0 2c21 03c0 bb81 40f8 8bdf dcbf
000004a0: 40ab 794f 3447 c83f d7c2 d4c4 3fe2 cebf
000004b0: 21ad 929d 32b3 fbbf e9ba 38e2 d41c f33f
000004c0: 9a30 aa04 bcb2 e33f 2e91 4806 7808 d53f
000004d0: db68 4fcf 5c0c f4bf e886 4e92 a29f c2bf
000004e0: 6623 8e2c a2ca b73f 6f83 72c8 3e6f debf
000004f0: 253d 868c c1a6 e4bf 190e fcee 144d d43f
00000500: 2dba ede1 92e0 e13f 4f41 ad39 cf48 ee3f
00000510: 9d8d 1bee bc92 f2bf 78ed 0fce 2e1d be3f
00000520: 20bc f587 ccb3 b4bf ad9c be27 9f7c ea3f
00000530: a462 31bc 857c 0140 d837 389e ea2a d63f
00000540: f7a1 4444 9f33 e0bf c567 227c 6d3f f2bf
00000550: f06a 2b54 ec05 00c0 02d6 7ad3 f014 d63f
00000560: 9259 9179 281e db3f 4fce d1bb 5e88 e43f
00000570: e3c2 000a e30a f63f e144 bd24 57eb 0040
00000580: 1e2e ec01 03f6 f63f 3e62 30d9 1cf1 e63f
00000590: 79cc fdf6 e35b f23f 3abf 75ef e97d 713f
000005a0: 0ba2 22f8 c063 a33f 8777 8ff4 feb0 b53f
000005b0: 750b a439 2d0d d5bf 505a a6e0 d203 b8bf
000005c0: c8c8 f569 e4dc e83f eded 5e6d d9e0 cc3f
000005d0: 0f68 5ba9 1572 f03f a3e5 2e56 b434 de3f
000005e0: a73d a85b 186f d9bf 346e ae13 afba f23f
000005f0: 43a5 23b3 ed98 e93f 5f1f a106 e87f f0bf
00000600: 42c8 86ab 9b4c f3bf d375 a506 0fa9 f9bf
00000610: fb50 187b c3d6 c53f b58e d3cb 6845 d23f
00000620: 557d dc59 c529 cb3f 808e 6287 1a50 eebf
00000630: 477b be1c b5f8 e13f 4fbf 2130 91ad 02c0
00000640: 8c7b 988e 7d57 e4bf bfd7 669a 8390 fb3f
00000650: 4151 435e d2e0 f3bf 367c 6068 1593 e3bf
00000660: c293 b929 9c89 e4bf 0dce af6f 0103 d4bf
00000670: c361 35ec e4d1 eabf e72a ed5f e3e1 e03f
00000680: 2eff 5097 5707 e63f 9bc6 9220 2a5e dabf
00000690: 325c 1b89 5671 e7bf 00e0 4de9 9588 efbf
000006a0: 1b69 a44e b371 b5bf f836 5d87 2a88 e73f
000006b0: a7ed e6b5 a36c ca3f b511 18ce 5a2a e3bf
000006c0: 0046 8107 6ec9 d93f a110 31c8 37d1 dc3f
000006d0: 9591 954b 7862 d43f 32f0 661b d924 d2bf
000006e0: 7e37 6e43 28b2 ffbf 2c5d 46f4 37bc fcbf
000006f0: 4166 2868 b9d1 b43f 8b3c 8ff4 ef4a d73f
00000700: bb69 f8bb 380d d7bf b8a7 7912 0c47 d3bf
00000710: 7e05 1e2d 919d fcbf 8e82 51c0 3e8b e1bf
00000720: 1d62 6556 efaa ea3f 8517 803e 2f89 debf
00000730: bfe4 5598 ae33 d8bf 48a5 661e 290a dd3f
00000740: 43a3 7762 0b09 c8bf d7d2 16bc 8221 fa3f
00000750: 8b48 57f4 4892 dfbf 0a0c 5b45 be55 d53f
00000760: 9fc6 a059 926d d23f 5c3e 17cd c642 db3f
00000770: bbff 5278 ea6c e83f 7ece 66ed 9385 df3f
00000780: f30a b875 95e7 f53f 179c e4f3 aaa6 f7bf
00000790: 6bfb a691 b56e b7bf 6b62 18e6 9a7e e3bf
000007a0: eb59 476a e524 d4bf 4a77 9f07 847f ff3f
000007b0: 68d1 7f9b 577a eabf c8f2 c23b beae da3f
000007c0: 97ad bcc9 f3ce ebbf 5e1e 00bb 7dd5 e6bf
000007d0: e01e 1f8e 7c19 c0bf 4548 8676 c8c3 e63f
000007e0: 9efc 8149 2814 be3f 123c cb40 b249 f13f
000007f0: 6076 07ba 543e f03f 97fe d8f7 27cd edbf
