weights2.npy (npy, 10368 bytes, 1 tensors)

array f8 [10, 128]
00000000: cce2 94ec ba90 ffbf 9f2b aa7e 7f7c 01c0
00000010: 0c94 e5d7 24cb f3bf 4b13 c771 a2e9 db3f
00000020: f77f 0c54 f6eb e1bf c38c ba24 699a c43f
00000030: d455 dc59 cfa4 f8bf ffe1 6387 6fc3 e4bf
00000040: 87e1 7673 05d5 ebbf 06c1 4248 813e f53f
00000050: 44b5 662b 6439 99bf cb4f fe7b a2c7 d9bf
00000060: 7bbb e5cd b962 f1bf 0f90 7ffb 80f2 e53f
00000070: d3c9 b5fe 1fe1 dabf f98c 5daa a031 89bf
00000080: 67d2 4c73 7317 d3bf 0a8c 3869 6813 d4bf
00000090: b3a7 c636 edad f4bf d891 5d1b df1e b7bf
000000a0: 8281 f58a 4936 e53f 781c b8d9 83f1 0540
000000b0: 166b 3c83 3f44 e0bf fbbe 482e 9364 f0bf
000000c0: 9ace fae4 d213 f3bf f529 1105 d11d c7bf
000000d0: f68e d531 2b35 d7bf 6d79 1c3b 9d1a d73f
000000e0: ec50 d590 d8a9 c73f d707 ebdb 42ba e73f
000000f0: 7ac9 23a4 69bc f8bf f106 7d80 ac80 05c0
00000100: f0cd df76 ef0b e53f 7729 4909 97b4 e0bf
00000110: df5a 86e2 4c52 00c0 3497 a39d 133c e6bf
00000120: 78b1 d0a9 e38e dd3f e7e4 0885 6e52 bb3f
00000130: 53d6 1d04 21d9 f4bf 28bf f04b 3d20 febf
00000140: 2034 8ee1 6fc0 f4bf 861c fe53 8782 d3bf
00000150: d603 58b8 f75b e53f 0176 37b6 c3e7 f5bf
00000160: d7bd be51 1d14 f7bf 47a8 33a7 3b55 f63f
00000170: bc00 64e1 cbde ffbf b20e 5a97 c985 eebf
00000180: 7536 c9ba b258 a03f 9243 4447 ca3d fe3f
00000190: b18a d296 71df f6bf f508 613f 3edf 0340
000001a0: 0120 3073 52f3 f7bf 9da1 88ce 893c f83f
000001b0: 37ea 2d98 fd4d d93f f159 aaa9 66e9 bdbf
000001c0: 454d 436f df28 ffbf 9b4a 3ecc 1ad1 fcbf
000001d0: 9ff3 e46f 6fd1 02c0 7972 ac96 8dbd f9bf
000001e0: 4996 2636 f401 f03f 3fdb c4cd 4b63 c3bf
000001f0: ee3a e6b2 33d1 fc3f 59e4 f698 07d4 b7bf
00000200: 7055 4c81 15e9 f93f fe95 d05d 04c6 a83f
00000210: 0243 c727 75b4 01c0 2520 15ef 9d5d 06c0
00000220: 3522 9437 7589 fcbf a764 49ac 4fbd e1bf
00000230: 3f33 af27 a92b e73f cdb7 e385 dcf8 e13f
00000240: a609 2d71 4cab e8bf 1608 7d7a 8621 fdbf
00000250: c55d b8bb 81f9 fbbf e5ea dc59 cce8 fdbf
00000260: 4ff8 e76e 695a e93f 2c78 d174 d13a f4bf
00000270: 2e9f 7332 f897 cd3f ebf1 3cae f498 0bc0
00000280: 4ad9 157c fa24 ff3f 8746 6694 02d9 f0bf
00000290: 8b7b 2ac8 7d40 c03e 5802 4675 ca35 f1bf
000002a0: 5087 efaa 9e27 f7bf 1333 8c42 e20e f6bf
000002b0: 2cce cf1d 602f db3f 1e19 40b9 1c18 fcbf
000002c0: e238 847f 2fbd c0bf b20d 2d8b 337c cbbf
000002d0: 71f5 1404 9413 f5bf 0efb ddd8 f41a f4bf
000002e0: e022 3c52 32c8 ecbf 1295 5e3c d349 ea3f
000002f0: d613 b37a 1db4 c6bf 5c0d 5ab6 43a3 0ac0
00000300: f2ea 6d61 32a4 f23f 0c43 e4a5 ac51 dcbf
00000310: a1ca d75d c11f b6bf 1e44 9000 5059 f5bf
00000320: a135 9974 2cd4 fcbf 107e bef2 81e7 f8bf
00000330: 9465 725f 6163 e3bf 0769 756d a611 09c0
00000340: c89a 4fa9 ea83 edbf 3f9c 2e90 b7ed dbbf
00000350: 4d25 005e dcca e6bf c2b6 8f4a 867e eebf
00000360: ffe0 e38e 522f fabf 7c4c 5f63 9c56 c0bf
00000370: 0e23 527e 7688 f3bf b1ce 54aa ac8a e3bf
00000380: aa80 5db8 21ad f6bf f257 7a37 5f63 e9bf
00000390: 59a6 dddb 1cc0 f9bf 96d4 9787 2e3b c53f
000003a0: b313 0e77 efc0 f3bf a036 9af9 f9d7 c2bf
000003b0: c753 f613 a9e2 ebbf ed34 f17c 2935 ac3f
000003c0: c4c8 aad3 5c39 bebf 017d e912 1ece efbf
000003d0: 05a5 10fd 32da f9bf d565 01c0 0545 00c0
000003e0: 6a88 1e13 9b5a e7bf cd87 4bfc 311a f0bf
000003f0: 9ad2 78e6 087d c4bf e7b5 cb44 c2bd eabf
00000400: 2cbe df37 4b08 f2bf 12b3 ee13 3f0c f2bf
00000410: f98b 71f5 f70d d93f 6167 d62c 7d58 b2bf
00000420: ba43 65e1 169c f8bf 308c 4257 4e1d ffbf
00000430: 97d9 439d 6d62 d6bf 1ef1 1ec8 5974 dc3f
00000440: 7791 1e2d ae46 0240 e877 a307 1802 01c0
00000450: fe30 bf6e fd40 e83f 1840 f33d 90e5 eb3f
00000460: 5f00 3b34 2c7d 0040 1703 4ab0 168f d33f
00000470: 1b25 eacf 30ab f3bf 024d ae76 7719 eabf
00000480: aead ac8a 517a e3bf d6d0 4c2d 42c1 ce3f
00000490: 6bf7 0e74 b2ef 08c0 2225 c875 c5af e63f
000004a0: 9326 2e59 3ec8 d43f 2e3c 961f 5059 e0bf
000004b0: 15f9 62c5 1410 bfbf e33a 5ad8 b1d6 0a40
000004c0: e946 cdba 439f f4bf 74f0 fc40 621b e0bf
000004d0: 3248 6ed6 d657 f1bf 08bf d657 4d19 f03f
000004e0: e1f3 7df4 eae9 0340 df7e 9c31 04b3 fdbf
000004f0: ed24 960f 5966 fb3f b7f1 2083 26ed cd3f
00000500: 64f3 f3d9 20be 05c0 8ae9 eefd 2c24 e4bf
00000510: 2c6c d653 351c 05c0 d5d0 005b e9dd e33f
00000520: e3c6 46c8 cad8 e3bf b22e 5b3d a870 f03f
00000530: f45a 9f0f 6b49 f3bf a8ae 3182 895d ff3f
00000540: 49c1 ef62 5946 d9bf 9898 26ca 32ff efbf
00000550: ee59 4ff2 acdd c63f b62f 64bf f590 f3bf
00000560: 34e6 8a03 7d90 d1bf c789 9304 4d72 e1bf
00000570: cb95 f122 98b1 febf 58fd 59ab b088 f0bf
00000580: a4f2 e8d4 bd94 f1bf 25da bef8 14d2 ed3f
00000590: 9a4c f81f d50e fabf 3cc1 f9e3 e8ae f9bf
000005a0: 7bb4 87d5 8586 e4bf 42d5 a2b3 d9e2 d9bf
000005b0: fae5 b10d ff60 d33f 24b0 18f5 8196 f0bf
000005c0: 8060 b719 eb20 f43f f5df 7e6c 127b ddbf
000005d0: bb8d f6ea 29ee d13f f68d eb08 7b54 dabf
000005e0: 46b5 0875 35fa ee3f 2c7f ee3c a4d3 f8bf
000005f0: 4a5d 8190 04c2 f03f b432 3d52 362e eebf
00000600: 7abb 250b 6d2a e0bf 9722 429a 933c ebbf
00000610: c451 4f50 ba75 01c0 ee08 8cfb 2b5f 01c0
00000620: 03bf d3ba 6921 fdbf 1679 6bb4 e457 f3bf
00000630: 3f89 815c 9810 f2bf f71e f253 1837 d3bf
00000640: 3ac9 5288 b5e0 d8bf 0ca5 e168 333a f2bf
00000650: 7ad3 f32b eb1b edbf 0e50 6707 a34b eabf
00000660: eef6 35db 6f6b fbbf 54e3 4c85 7a15 0240
00000670: 66b7 5cc1 cb12 e73f cc9b 2124 ba7e d0bf
00000680: ac86 9e0b 72ef 00c0 c3c3 818e 8067 0040
00000690: 9aad 5cbe 8794 c03f 4374 7d7d d3a5 fb3f
000006a0: db9e c674 162f f0bf cc40 71a3 b774 b9bf
000006b0: b712 0373 e847 e5bf cf26 47fd 7a6b f5bf
000006c0: ec44 7f09 4ad6 8dbf bacb de99 49c9 ffbf
000006d0: c12e b530 76dc 0540 863d 36ef 7e9b e9bf
000006e0: f8c0 49fc 5ce3 f5bf 0ba1 8b93 023f d0bf
000006f0: 1f63 2116 bbd8 d1bf 99df db9d 2891 f03f
00000700: b8fa 429e c37f f6bf ef6f 769c 395f 8cbf
00000710: 508c b32d b37c e6bf 05b6 1d2b 72fa d13f
00000720: 3def a17b e79d ff3f 31d9 b1fe 47ac f9bf
00000730: 8e19 a550 d0d8 f6bf bcab 1cca ffb5 eabf
00000740: 2d13 e3c9 d85d e2bf a3f6 e532 8bfc eabf
00000750: b2bd bf37 f5c3 0040 23d5 ef86 8620 d2bf
00000760: 9cec a345 88b2 efbf 3d69 3b3a daa1 9fbf
00000770: 6770 b62b a04d e03f 95f6 6795 1a99 f9bf
00000780: 4cbd 8574 cd62 fd3f d848 fa5d ef43 e2bf
00000790: 7c0a fd97 8806 f2bf 5230 ed95 031a eebf
000007a0: 18c5 c773 ffde f43f f2f1 f3c7 4b8e 943f
000007b0: e20a c845 de1f efbf 8226 91f3 f0ba f4bf
000007c0: 5c66 f84f c6a6 fc3f 58f4 cc8d ec26 0240
000007d0: 46a6 27a4 6683 e5bf f783 88dd af4d fbbf
000007e0: 722e 69bd 37de 773f fb9f ccfd 6b48 db3f
000007f0: 31f9 d586 53bc eabf 0cc8 9d30 4b48 02c0
-1.9728345147579374 -2.1857900520021327 -1.2370956834286089 0.43613492117974734 -0.560053981931559 0.16096224110979138 -1.5402368078406328 -0.6488568920458987
-0.869753575817456 1.3277600119291164 -0.02463299288654254 -0.4028097353814217 -1.086602978026092 0.6858525192333235 -0.41999053834947836 -0.012301688384189978
-0.29830633411191915 -0.3136845614955638 -1.2924625529944762 -0.09031481187918844 0.6628768648188699 2.7429272660552293 -0.5083310664370824 -1.0245544250464593
-1.192339796497356 -0.1805974268666685 -0.3626201616918786 0.3609994008310398 0.18487078735291307 0.741486959006802 -1.5459991847716013 -2.687829021277928
0.6577069589388298 -0.5220446759570184 -2.040185708737553 -0.6948335722815728 0.46184627135769274 0.10672655818861508 -1.303010002212791 -1.8828709570333988
-1.2969816981087732 -0.30484183504490436 0.6674765205826769 -1.3690831296765966 -1.442410773579345 1.395808842784861 -1.991893654281781 -0.9538314777459702
0.03192671327688582 1.8900854858258964 -1.4295516864300846 2.484005446575902 -1.4969048022776408 1.5147798602793963 0.3953851686598315 -0.116842667028642
-1.9474787088591523 -1.801050947022907 -2.3522633306260583 -1.6087776075065945 1.0004770388853947 -0.15146777674973497 1.8010746944671001 -0.09307906612856821
1.6194052744588951 0.04838575024795587 -2.2131140811619625 -2.795711391288949 -1.7835590525666138 -0.5543592801069693 0.7240796828351462 0.5616285910634758
-0.7709104738681176 -1.8206848892882639 -1.7484147389239848 -1.869335509326157 0.7922866026053813 -1.2643599093639848 0.23120024169406278 -3.449685441241163
1.9465279433330402 -1.0529809758049014 1.937379751140239e-06 -1.0756325322146463 -1.4471728017019423 -1.3786337470548389 0.4247665682916899 -1.755886767992315
-0.13077348448172815 -0.21472782417013786 -1.3172798308799794 -1.2565811606761517 -0.8994380575323611 0.8215118578997667 -0.17737167826831407 -3.3297189947349306
1.1650871091684931 -0.44248501015049224 -0.08642204800689025 -1.3343048116696603 -1.801800208533088 -1.5565204126540984 -0.6058813919254811 -3.1336182166534203
-0.9223531061987496 -0.43638409691124375 -0.7122632823895089 -0.9529448944355965 -1.636553342976242 -0.1276431546417348 -1.2208161291511632 -0.6106780363829413
-1.4172684861914981 -0.7933803638031789 -1.6094025219448638 0.16586858387714604 -1.2346033716760132 -0.1472160786401462 -0.8714185132872608 0.05509309435056218
-0.11806278388647501 -0.9939108247162097 -1.6157712827064767 -2.0337023735453195 -0.7298102734969352 -1.0063953261637721 -0.16006575826181263 -0.8356639236132509
-1.127024858720584 -1.127989843235984 0.3914775750073996 -0.07166273445764439 -1.5381077579988713 -1.9446547897903308 -0.349757579402103 0.4446014837556208
2.2845119023278886 -2.126022395778808 0.7579333460830922 0.8717728815045147 2.061119468737203 0.3056084367345177 -1.2292945977845366 -0.8156087224946591
-0.608681460236246 0.24027278148572034 -3.1170395915095717 0.7089564609933954 0.32472189625750864 -0.5109024636202599 -0.1213391286755477 3.354831400159456
-1.2888829514453681 -0.5033427495286689 -1.0839451194956493 1.006177275772588 2.4892176724374484 -1.8562051713888008 1.712487278828401 0.23379975703018172
-2.7178360965321406 -0.6294159850724992 -2.638773589116246 0.6208388116270053 -0.6202138816499566 1.027504195854743 -1.2054243669751346 1.9603362165170584
-0.39491877233287603 -0.9999021480805537 0.17864000159779841 -1.2228906131958701 -0.2744438681216679 -0.5452027406102439 -1.9183579792964902 -1.03337161001385
-1.098813850097181 0.9318947656927931 -1.628621220476623 -1.605202570466715 -0.6414212389478416 -0.40447084944328904 0.3027951844920548 -1.036745030792198
1.2580367092650988 -0.46063671679757984 0.2801613611756825 -0.4114062869177525 0.968043068487227 -1.5516703014508932 1.0473676342715685 -0.9431411367637197
-0.5051789491388796 -0.8511446011408051 -2.182484271450649 -2.171470608912492 -1.82065747241353 -1.2089583442353322 -1.1290515531077998 -0.30023773382025304
-0.3887151557238614 -1.1392091843538905 -0.9096580370374874 -0.8217330116845021 -1.7137297213479843 2.260487595948158 0.7210444237332296 -0.2577348091930929
-2.116916743064243 2.0505381711340944 0.12953278346081448 1.7279848958926471 -1.0114960252339447 -0.09943721523564192 -0.6650278326347551 -1.338740338675439
-0.014568880476789357 -1.986642457061619 2.732647305039649 -0.8002314254862746 -1.3680085997585234 -0.2538458290932943 -0.27885319863485053 1.0354391256678126
-1.4061924154372445 -0.013853502356873519 -0.7027221577267344 0.2809110089354763 1.976050837459254 -1.6045608471882356 -1.427933039683555 -0.8347166965007697
-0.5739559119325343 -0.8433280939204518 2.0956825595273694 -0.2832351987593304 -0.9905434951937369 -0.030890855602458734 0.5094757894289729 -1.5998788677383449
1.836621718564703 -0.5707928500653692 -1.1265951096580968 -0.9406755378963771 1.3044428370161025 0.020074066237599504 -0.9726401675146372 -1.2956399454436967
1.7907164691772754 2.269005878274168 -0.6722901540899293 -1.7064665464060889 0.005827157720499453 0.4262952784069964 -0.8354890473854423 -2.2852996633673737
